checkpoint_critic.pth (torch_old, 384713 bytes, 7 tensors)

fc1.weight f4 [256, 52]
0	0xbde94fd1	-0.11392177
1	0xbd87dcae	-0.06633888
2	0x3de804db	0.11329051
3	0x3d8ff7b6	0.07029669
4	0x3c22d2a0	0.009937912
5	0x3cd8756e	0.026423182
6	0xbdbf4325	-0.09338979
7	0x3d16121f	0.036638375
8	0xbdb60e23	-0.08889415
9	0xbe5713b8	-0.21003616
10	0x3dac2b53	0.08406701
11	0x3d3d2fcb	0.046188157
12	0xbcd904c9	-0.02649154
13	0xbe22c801	-0.15896608
14	0xbd92d24f	-0.071690194
15	0xbd71b651	-0.05901176
16	0xbd87047a	-0.06592651
17	0xbe5ea7df	-0.21743725
18	0xbcd262d1	-0.025681885
19	0x3da291e5	0.079379834
20	0xbdba8634	-0.091076285
21	0xbe9edbf8	-0.31027198
22	0x3d9752f8	0.07388872
23	0x3d5510ad	0.052017856
24	0x3ca5fa4a	0.020260949
25	0xbe3dc728	-0.18533003
26	0x3ca998ca	0.020702738
27	0x3ce562c5	0.028001199
28	0xbe300402	-0.17189029
29	0x3dd4a909	0.103838034
30	0x3d8cb692	0.0687076
31	0xbd489815	-0.04897316
32	0x3df2ce64	0.11855772
33	0xbde19e7f	-0.11016559
34	0x3d146153	0.036225628
35	0xbdd45e30	-0.10369527
36	0xbbb1be6e	-0.0054243123
37	0x3bf0c788	0.0073480047
38	0xbdbd13aa	-0.09232266
39	0x3d27a245	0.040926237
40	0xbd223ba5	-0.039607663
41	0xbdc573c3	-0.096412204
42	0x3df0da10	0.11760342
43	0x3c25a6e7	0.010110593
44	0x3d4f877f	0.05066633
45	0xbdecae7c	-0.11556718
46	0xbd8c0cb6	-0.06838362
47	0xbd29cdb2	-0.041455932
48	0x3b7d0805	0.0038609516
49	0xbd23e9a4	-0.04001774
50	0x3e3304c8	0.17482293
51	0xbe1ec19d	-0.15503545
52	0x3dbef080	0.093232155
53	0x3d5f8744	0.05457236
54	0x3dc26702	0.094923034
55	0xbe53e4ff	-0.20692824
56	0xbe461ba4	-0.19346482
57	0xbdceaf7e	-0.10092066
58	0xbdafe098	-0.0858776
59	0xbe97f544	-0.2967931
60	0x3cd431cf	0.025902657
61	0xbe053ac5	-0.130107
62	0xbaeabbb6	-0.0017908725
63	0x3d869d44	0.06572965
64	0xbe341be7	-0.17588769
65	0xbe4eff8c	-0.20214671
66	0xbd86771e	-0.065656886
67	0xbde0c7d2	-0.10975613
68	0x3e0b3e6a	0.13598028
69	0xbe3eef09	-0.18645872
70	0x3dd9464f	0.106091134
71	0x3afd0e6c	0.0019306666
72	0xbd4c3d37	-0.049863067
73	0x3d04ee2b	0.032453697
74	0xbd8c4d9f	-0.068507425
75	0x3e051893	0.12997656
76	0xbc3e445a	-0.011612976
77	0xbc9e697a	-0.019337405
78	0xbdcde5d0	-0.10053599
79	0xbd5924d6	-0.053013645
80	0x3d26a023	0.040680062
81	0xbd95aa0a	-0.07307823
82	0x3d5b9072	0.05360455
83	0xbe525a39	-0.2054223
84	0x3d0c5492	0.03426034
85	0xbd96a606	-0.07355885
86	0x3b2b323f	0.0026122478
87	0x3a3996d6	0.0007079666
88	0x3dad8382	0.08472349
89	0xbddea6ae	-0.108716354
90	0xbcde5668	-0.027140811
91	0x3d54639c	0.051852807
92	0x3dd8982c	0.105758995
93	0x3de81e7f	0.11333942
94	0xbd4c0dc7	-0.049817827
95	0xbe3b97df	-0.18319653
96	0xbe55f5da	-0.20894566
97	0xbd960142	-0.07324459
98	0xbd7563b1	-0.059909526
99	0xbe267877	-0.16256891
100	0x3da53bf0	0.08068073
101	0x3dc83479	0.09775633
102	0x3e4c6c0d	0.19963093
103	0xbc828317	-0.01593165
104	0xbde2b753	-0.110701226
105	0x3e1df376	0.15424904
106	0xbdd2dc6d	-0.10295949
107	0xbd186946	-0.03720977
108	0x3dd8c625	0.10584668
109	0xbd3026be	-0.043005697
110	0x3dd6ec45	0.104942836
111	0xbe0b94dc	-0.13631004
112	0x3e03af23	0.12859778
113	0x3e50da9f	0.20395897
114	0xbdba80ab	-0.09106573
115	0xbe08ddf9	-0.13365926
116	0xbd51f735	-0.051261146
117	0xbeb4944d	-0.35269395
118	0x3d8036b9	0.062604375
119	0x3d46db1f	0.048548814
120	0x3d358100	0.044312477
121	0x3de41f44	0.11138776
122	0xbd694606	-0.056951545
123	0x3dc1d719	0.09464855
124	0x3ce6c4f1	0.02817008
125	0xbee27e0c	-0.4423679
126	0x3d92a3d3	0.07160153
127	0x3d6ac355	0.05731519
128	0xbc582115	-0.013191481
129	0xbd012a5f	-0.03153455
130	0xbd6b651f	-0.057469483
131	0xbc64b5e4	-0.013959382
132	0xbd07ccd8	-0.03315434
133	0xbe15d46b	-0.14631812
134	0xbd987f28	-0.07446128
135	0x3ddd935d	0.10819123
136	0xbd8936db	-0.06699916
137	0x3e295da9	0.16539635
138	0xbc52e0e8	-0.012871005
139	0xbdaeba0d	-0.0853158
140	0x3dbd7f95	0.0925285
141	0xbdd5fda6	-0.1044877
142	0xbdeb8926	-0.11500768
143	0xbe497ac8	-0.19675744
144	0x3d600f5e	0.054702155
145	0x3e0c54dd	0.13704248
146	0x3cd53904	0.026028164
147	0xbe667b82	-0.22508052
148	0x3dccd8a6	0.1000226
149	0xbeed519e	-0.4635133
150	0x3b6bcbcd	0.003597963
151	0x39b4fea8	0.0003452201
152	0x3db7ab23	0.089681886
153	0x3dbbe441	0.09174395
154	0x3e522bab	0.2052447
155	0xbc18d2c9	-0.009327599
156	0xbbfb72b6	-0.0076735867
157	0x3c48072c	0.012208741
158	0xbccd705f	-0.025077997
159	0xbd998909	-0.074968405
160	0xbd163578	-0.036672086
161	0xbd94d72b	-0.072676025
162	0xbc900e86	-0.01758505
163	0xbd99cf01	-0.07510186
164	0x3dcaa164	0.09894064
165	0xbd98a8b8	-0.074540555
166	0xbcc784f3	-0.024355387
167	0xbdb1a152	-0.086733475
168	0xbd90ebe6	-0.07076244
169	0x3def42b2	0.11682643
170	0xbc49590d	-0.012289298
171	0x3d8b1f3e	0.06793068
172	0x3b534b48	0.0032240916
173	0xbe8d992d	-0.27655926
174	0xbd7c5c7d	-0.06161164
175	0xbcd62928	-0.026142672
176	0xbd55523f	-0.05208039
177	0x3e99997f	0.2999992
178	0x3d3bd2a7	0.04585519
179	0xbd4dfb7c	-0.050288662
180	0x3dc893d7	0.09793823
181	0xbdca18ff	-0.09868049
182	0xbcd5aef5	-0.026084403
183	0x3d66045c	0.0561565
184	0x3da4af88	0.080412924
185	0xbdb3b00b	-0.08773812
186	0x3d7e4bed	0.062084127
187	0xbc36268b	-0.011117588
188	0x3d6a5443	0.057209264
189	0xbe018f77	-0.12652384
190	0xbd03ceb9	-0.032179568
191	0xbd460e12	-0.048353262
192	0xbe043a40	-0.12912846
193	0xbbee8388	-0.0072788633
194	0x3d73346d	0.05937617
195	0xbe510bf2	-0.20414713
196	0x3df234fd	0.11826513
197	0xbdc9fdcc	-0.09862861
198	0xbcc2dd49	-0.023787158
199	0xbddb6079	-0.1071176
200	0x3e1ec74d	0.15505715
201	0x3e947747	0.2899725
202	0x3dbd0e7d	0.09231279
203	0xbe4b0f4b	-0.19830053
204	0x3eba09ad	0.36335507
205	0x3dfc690a	0.12324722
206	0x3e83444d	0.25638047
207	0xbd04909b	-0.03236447
208	0x3c22cec5	0.009936993
209	0x3e364f02	0.17803577
210	0x3d1bb523	0.038014542
211	0x3df6e1a8	0.12054759
212	0xbc2f1e53	-0.010688382
213	0x3c8018f9	0.015636908
214	0x3d60a32f	0.054843124
215	0xbdacfb0a	-0.084463194
216	0xbd6b51c8	-0.05745104
217	0x3d474e4c	0.048658654
218	0x3d9bf0b7	0.07614272
219	0x3da4d3f7	0.080482416
220	0xbb92151f	-0.0044580842
221	0xbe0e10eb	-0.13873641
222	0xbdb0a331	-0.08624876
223	0x3cdce1dd	0.026963169
224	0xbe117196	-0.14203486
225	0x3e7aa9a5	0.24478777
226	0xbd301d11	-0.04299647
227	0xbd0ff2fb	-0.035143834
228	0xbcc14323	-0.023591584
229	0xbc4b3f61	-0.012405247
230	0x3dcb6f78	0.0993337
231	0x3caa0ca9	0.02075799
232	0xbca0e1d1	-0.019638928
233	0xbc88d1c3	-0.016701585
234	0x3d80eda3	0.062953256
235	0x3cc77ebc	0.024352424
236	0x3ca74ec3	0.020423299
237	0x3dfaa8c6	0.12239222
238	0xbd6324e0	-0.05545509
239	0xbce59f6a	-0.028030116
240	0x3e18aa3a	0.14908686
241	0xbcd41c9a	-0.025892545
242	0x3d400c99	0.046887014
243	0x3ca2a8de	0.019855913
244	0xbb97e33a	-0.004635242
245	0xbdc681aa	-0.096927
246	0xbddfeb81	-0.10933591
247	0x3df3704a	0.11886652
248	0x3cf6cee0	0.030127943
249	0x3d5e49e2	0.05426968
250	0x3ce3da4f	0.027814059
251	0x3e086bca	0.13322368
252	0x3e2f9d28	0.17149794
253	0xbca13e76	-0.019683104
254	0xbd4a51ec	-0.049394533
255	0xbd254adc	-0.040354595

fc1.bias f4 [256]
0	0x3cf420b3	0.029800748
1	0x3da864fe	0.08222388
2	0x3dbda819	0.09260578
3	0xbde40595	-0.11133877
4	0xbdc205e7	-0.09473782
5	0x3d171d3b	0.03689311
6	0xbd477016	-0.048690878
7	0xbda5e31a	-0.08099957
8	0xbdb0b620	-0.086284876
9	0xbddcb13d	-0.10775993
10	0xbd0100d8	-0.031494945
11	0x3bea503f	0.0071506794
12	0xbe3e8ffb	-0.18609612
13	0xbd7f61d1	-0.062349144
14	0xbe0823fe	-0.1329498
15	0xbdbf95e6	-0.09354763
16	0xbd9fff4a	-0.078123644
17	0x3e0f9dbe	0.14025018
18	0xbdca148d	-0.09867201
19	0x3e12a183	0.14319424
20	0xbd776729	-0.060401116
21	0x3db2f937	0.0873894
22	0xbdf03df7	-0.11730569
23	0x3dbaef24	0.09127644
24	0xbdb4029c	-0.0878956
25	0xbcb4630b	-0.022019884
26	0x3cf1977b	0.029491177
27	0xbd4e1b6c	-0.05031912
28	0xbd95cb13	-0.07314124
29	0xbe203cb8	-0.15648162
30	0x3e12297e	0.1427364
31	0xbd447cd5	-0.04797061
32	0xbd9b3545	-0.0757852
33	0xbe0e52e5	-0.13898809
34	0xbdd3e0c6	-0.103456065
35	0x3cff645c	0.031175785
36	0xbb85b0e0	-0.004079923
37	0xbe19a588	-0.15004551
38	0xbe1bba3b	-0.1520776
39	0xbcb6ed48	-0.022329941
40	0xbdb2d3ec	-0.08731827
41	0xbd4d90da	-0.05018697
42	0x3dcfc31c	0.10144636
43	0xbe218e3f	-0.15776919
44	0xbd8b32a7	-0.067967705
45	0xbde73632	-0.11289634
46	0xbced5738	-0.028972253
47	0x3d945845	0.072433986
48	0x3e0cae95	0.13738473
49	0x3e24bd87	0.16087924
50	0x3e01cfa2	0.12676862
51	0x3e1a36b9	0.15059938
52	0x3caf9e92	0.021437917
53	0xbe38d271	-0.18049027
54	0xbb824cdc	-0.0039764475
55	0x3d12ae63	0.03581084
56	0xbdbe4e6b	-0.09292301
57	0xbd4eb9ad	-0.050470043
58	0x3d54146b	0.051777285
59	0xbd7aabe6	-0.06119909
60	0x3d9e32f2	0.07724561
61	0x3d5dd7f7	0.05416104
62	0xbde37e60	-0.111080885
63	0x3d8e364b	0.06943949
64	0x3de13238	0.109959066
65	0xbe47e41d	-0.19520612
66	0xbd5e5137	-0.05427667
67	0xbde4e5fb	-0.11176678
68	0xbd5089a4	-0.050912514
69	0xbd5b2848	-0.053505212
70	0xbd981777	-0.074263506
71	0x3dc219ef	0.09477603
72	0xbdb224bb	-0.08698412
73	0xbc0bb39d	-0.00852671
74	0x3df9a517	0.121896915
75	0xbdacf884	-0.08445838
76	0xbdf38d7c	-0.118922204
77	0x3dc37e2a	0.09545548
78	0xbe18935c	-0.14899963
79	0x3caa8e6e	0.020819869
80	0x3d1838e4	0.03716363
81	0x3c134502	0.008988621
82	0x3d1f7dbe	0.038938276
83	0xbe87d553	-0.2652994
84	0xbe250e49	-0.1611873
85	0xbd93274c	-0.0718523
86	0xbe140871	-0.14456345
87	0x3cc64044	0.024200566
88	0xbd935280	-0.0719347
89	0x3c8ec7ff	0.01742935
90	0xbd7e50c9	-0.06208876
91	0xbe10c6e2	-0.14138368
92	0x3d88f633	0.06687584
93	0x3bdd6a3b	0.0067570484
94	0xbd3e44a4	-0.04645218
95	0xbdb58cfc	-0.08864781
96	0x3d8a5e4d	0.06756268
97	0xbdde55c5	-0.10856203
98	0x3d0667e4	0.03281392
99	0x3c325355	0.010884126
100	0xbd46bd30	-0.048520267
101	0xbe0e3ea1	-0.13891079
102	0xbd8156c2	-0.06315376
103	0xbcbfc95d	-0.023411447
104	0xbe2b0061	-0.16699363
105	0x3deb8af2	0.11501111
106	0x3dd10f09	0.10207946
107	0x3e093283	0.13398175
108	0xbe386fa9	-0.18011345
109	0x3d9ab69c	0.07554361
110	0xbe11b369	-0.14228596
111	0xbd13bd32	-0.036069103
112	0x3d40ea1e	0.04709827
113	0xbe40cc04	-0.18827826
114	0xbdcee764	-0.10102728
115	0x3d2ace04	0.041700378
116	0xbd93a7e2	-0.072097555
117	0x3dc2475a	0.094862655
118	0x3df60e71	0.12014473
119	0xbde5f83f	-0.1122899
120	0xbde7aa57	-0.113117866
121	0x3c29dfe2	0.010368319
122	0x3d094e11	0.033521716
123	0x3b8bba56	0.0042641563
124	0x3e10a6b5	0.14126094
125	0x3d96bddb	0.07360431
126	0xbdd62ba8	-0.104575455
127	0xbb5cd790	-0.0033697821
128	0x3d4eec04	0.05051805
129	0x3d4a3d74	0.049375013
130	0x3ce353ff	0.027750013
131	0xbdcb362e	-0.09922443
132	0x3dc1e4b9	0.094674535
133	0x3df3be63	0.11901548
134	0x3c9587c6	0.018253218
135	0x3ca2adec	0.019858323
136	0xbd4da957	-0.050210323
137	0xbd91e9b8	-0.071246564
138	0x3e3eec66	0.18644866
139	0xbe293a5e	-0.16526172
140	0xbd90b9ee	-0.07066713
141	0xbce2a87f	-0.027668236
142	0x3db51fc1	0.08843947
143	0x3e11d2dd	0.14240594
144	0xbe18270e	-0.14858648
145	0xbe1bff17	-0.15234028
146	0x3d94b282	0.0726061
147	0x3e10ceec	0.14141434
148	0xbd345224	-0.044023648
149	0xbd75b243	-0.059984457
150	0x3d612b54	0.05497296
151	0x3d436d3e	0.047711603
152	0xbd682693	-0.056677412
153	0xbcc777c9	-0.02434911
154	0xbaad0c85	-0.0013202584
155	0x3c30fc27	0.010802305
156	0x3d6a8119	0.057252023
157	0xbdac5ac6	-0.08415751
158	0xbe269cb3	-0.16270714
159	0xbd2c621a	-0.042085744
160	0x3d942ba6	0.07234888
161	0xbde22023	-0.11041286
162	0xbbbae990	-0.0057041124
163	0xbd990b40	-0.07472849
164	0xbe2bc5fe	-0.16774747
165	0xbd23c41a	-0.03998194
166	0x3c8d8713	0.017276322
167	0x3d9d6471	0.07685173
168	0xbd78d7be	-0.060752623
169	0xbe2cd20e	-0.16877005
170	0x3ce0eba9	0.027456122
171	0x3da0c7cb	0.078506075
172	0xbe1e0e1f	-0.15435074
173	0xbd584e28	-0.05280891
174	0x3d166bf7	0.036724057
175	0xba1b964a	-0.00059351756
176	0xbda3c686	-0.0799685
177	0xbcee99fe	-0.029126164
178	0xbe0306eb	-0.12795608
179	0xbd878a10	-0.0661813
180	0x3b6e6396	0.0036375276
181	0x3d2d70cb	0.042343896
182	0x3d37880a	0.04480747
183	0x3c7db3c5	0.015484755
184	0x3c3047a8	0.010759272
185	0xbd80627b	-0.06268784
186	0xbba13b3e	-0.0049203923
187	0x3c9cd19e	0.019142922
188	0x3e19e2cc	0.15027922
189	0x3d030854	0.031990364
190	0xbe15a86b	-0.14615028
191	0xbe21fd62	-0.15819314
192	0xbdb66d9c	-0.08907625
193	0xbdcc9f57	-0.09991329
194	0x3bac79f4	0.0052635614
195	0xbe1c53cc	-0.15266341
196	0x3dbf9a06	0.093555495
197	0xbcc0c8e9	-0.023533301
198	0x3bcec064	0.006309556
199	0xbd8f899b	-0.07008668
200	0xbd1e0e8b	-0.038588088
201	0x3d2d8b98	0.042369455
202	0x3bdf135e	0.0068077287
203	0x3d9f0157	0.077639274
204	0xbe1c1034	-0.15240556
205	0xbdcebff7	-0.10095208
206	0xbc3f1e9b	-0.011665012
207	0xbe0f121c	-0.13971752
208	0xbdf38a1d	-0.118915774
209	0xbd909702	-0.070600525
210	0xbd18bc10	-0.037288725
211	0x3e2b9a85	0.16758163
212	0x3b8b80f0	0.004257314
213	0xbdc95c43	-0.09832051
214	0xbe229e38	-0.15880668
215	0x3dce2a0d	0.10066614
216	0xbd5b9848	-0.053612024
217	0x3d6fca11	0.058542315
218	0xbdd42110	-0.10357869
219	0xbdcb26c8	-0.09919506
220	0xbb3f4f8e	-0.0029191705
221	0xbe0a2b7c	-0.1349315
222	0x3d513180	0.051072598
223	0xbddab3d5	-0.106788315
224	0xbde0dd01	-0.10979653
225	0x3d95cf44	0.073149234
226	0x3e129aca	0.1431686
227	0xbceaf045	-0.028679023
228	0xbe3bcd78	-0.18340099
229	0x3d326251	0.043550793
230	0x3d541b02	0.05178357
231	0xbe0766a3	-0.13222747
232	0xbdac2e27	-0.0840724
233	0xbdbe071d	-0.092787005
234	0xbc0e2ef2	-0.008678185
235	0xbd4c9812	-0.049949713
236	0xbe2abb57	-0.16673027
237	0xbc1c23b2	-0.009529995
238	0xbc734e10	-0.0148501545
239	0xbdde2d6b	-0.108485065
240	0xbde626cf	-0.11237871
241	0xbde949e6	-0.11391048
242	0x3d97ff60	0.07421756
243	0x3c9706f4	0.018435933
244	0xbd4cbc11	-0.04998404
245	0xbe0a63df	-0.1351466
246	0x3da5accd	0.080896
247	0xbd47e479	-0.048801873
248	0x3d66b62f	0.056326088
249	0x3d6d993b	0.05800746
250	0x3db90642	0.09034397
251	0xbd666338	-0.056246966
252	0x3de8951b	0.113565646
253	0xbdf64669	-0.120251484
254	0xbe2adacb	-0.16685025
255	0xbd73c8ff	-0.059517857

fc2.weight f4 [256, 256]
0	0x3d0d0998	0.034432977
1	0x3d94d18d	0.07266531
2	0x3d8cfb6e	0.06883894
3	0xbdb2e09d	-0.08734248
4	0xbde5aa6d	-0.11214147
5	0x3d119c0f	0.03554922
6	0x3a85ecd2	0.0010217673
7	0xbe044bd4	-0.12919551
8	0xbca39aa5	-0.019971201
9	0x3ba22981	0.0049487953
10	0xbcdb9aed	-0.026807273
11	0xbc930d6a	-0.017950732
12	0x3c457278	0.012051217
13	0x3d671bf3	0.05642314
14	0x3d6e32d8	0.058153957
15	0xbd8ef471	-0.06980217
16	0x3d107522	0.035267957
17	0xbc91dacf	-0.017804531
18	0x3c591704	0.013250116
19	0x3cf6d16c	0.030129157
20	0xbcf9a55f	-0.030474363
21	0xbdc7a9cd	-0.09749184
22	0xbe27c84d	-0.16385002
23	0x3c87742c	0.016534887
24	0xbd866841	-0.065628536
25	0xbcfb3321	-0.030664029
26	0x3d36ba3f	0.044611212
27	0x3d27e48d	0.040989447
28	0xbe43da7f	-0.19126318
29	0xbd3fc6fb	-0.046820622
30	0xbe20626b	-0.15662543
31	0xbc9284cb	-0.017885586
32	0x3bf9be0f	0.0076215337
33	0xbd9754f7	-0.07389253
34	0x3a55e5d7	0.0008159554
35	0xbdb90338	-0.09033817
36	0xbc82d57c	-0.015970938
37	0xbe1d9f1d	-0.15392728
38	0xbd7bf994	-0.061517313
39	0xbe61ff54	-0.22070056
40	0x3d804380	0.062628746
41	0x3b8dc4fa	0.00432646
42	0x3ca17f52	0.019714031
43	0xbd992738	-0.074781835
44	0xbd281257	-0.041033115
45	0x3d2d864d	0.042364407
46	0xbb91b942	-0.0044471333
47	0x3d2ab20a	0.041673698
48	0xbc10d65e	-0.008840172
49	0xbea3f9fc	-0.3202666
50	0xbd215aaa	-0.039393105
51	0x3d10bc38	0.03533575
52	0xbe12f37b	-0.14350693
53	0xbd6073bf	-0.054797884
54	0xbe1ecd64	-0.15508038
55	0xbc1ed503	-0.009694341
56	0xbd9e1c8b	-0.07720288
57	0xbd058c9b	-0.032604795
58	0x3cd8a787	0.02644707
59	0xbd8068c1	-0.0626998
60	0x3d7eda45	0.062219877
61	0xbd1a2ca6	-0.037640236
62	0xbcc32c34	-0.023824789
63	0xbe28f40c	-0.16499346
64	0x3905ef50	0.00012773019
65	0x3cf1488e	0.029453542
66	0x3cd35461	0.025797071
67	0xbdea65ee	-0.11445223
68	0xbd5f9d88	-0.054593593
69	0xbd02499a	-0.031808473
70	0xbc8c9917	-0.017162843
71	0x3cb4d317	0.022073312
72	0x3c80e6ff	0.015735148
73	0x3dbe74d8	0.0929963
74	0x3ce89c26	0.02839477
75	0x3dff1362	0.12454869
76	0xbcc3579d	-0.023845488
77	0x3dc7040c	0.09717569
78	0xbdd90d77	-0.10598271
79	0x3c758e9c	0.014987614
80	0xbca1d991	-0.019757064
81	0xbc8b54e5	-0.017008254
82	0xbdc9cf65	-0.098540105
83	0x3d80d631	0.06290854
84	0x3da08851	0.078385
85	0x3cf37f4b	0.029723784
86	0xbdcfb953	-0.1014277
87	0xbce5fb01	-0.02807379
88	0xbdbbec9d	-0.0917599
89	0x3ca1fd87	0.019774212
90	0xbdaeeb48	-0.0854097
91	0x3c86257e	0.0163753
92	0xbb8e7581	-0.0043475037
93	0xbd6d30ce	-0.057907872
94	0xbc3f0448	-0.011658736
95	0x3c8e80c9	0.017395394
96	0x3cae97ff	0.021312712
97	0x3c8a89f2	0.01691148
98	0xbd2f4825	-0.04279341
99	0xbd94104f	-0.07229673
100	0xbd1a4fc1	-0.037673716
101	0xbd54214a	-0.05178956
102	0xbdd80f09	-0.10549743
103	0xbd79c418	-0.060978025
104	0xbd34057d	-0.043950547
105	0xbd42612e	-0.04745596
106	0x3c03d418	0.008046173
107	0xbdbd1e45	-0.09234289
108	0xbceb9134	-0.028755762
109	0xbda95637	-0.08268397
110	0xbd5d065e	-0.05396115
111	0x3d031198	0.0319992
112	0x3c5b1671	0.01337205
113	0xbd1d0df0	-0.03834337
114	0x3db058f7	0.08610719
115	0x3b6c84b4	0.003608984
116	0xbd11f491	-0.035633627
117	0x3e0ca0bc	0.1373319
118	0x3c83692c	0.01604136
119	0xbd492467	-0.04910698
120	0x3d45d6d1	0.048300568
121	0x3cc25d67	0.023726178
122	0xbd54ab90	-0.051921427
123	0x3c32bcd1	0.010909275
124	0xbe3d3fac	-0.1848132
125	0xbe7becc5	-0.24602039
126	0x3bff3a1c	0.0077889096
127	0x3db58864	0.08863905
128	0xbd8d6ada	-0.06905146
129	0x3cb7fc57	0.022459192
130	0xbd5fe95b	-0.054665904
131	0x3c16b016	0.009197256
132	0x3d952950	0.0728327
133	0xbc9519d8	-0.0182008
134	0xbe954a56	-0.29158276
135	0xbde9c9e1	-0.114154585
136	0xbdfb127e	-0.122593865
137	0xbcbfe3d8	-0.023424074
138	0xbdccfade	-0.100087866
139	0xbc10c37b	-0.008835669
140	0x3d12027b	0.035646897
141	0x3bfcc025	0.007713335
142	0xbd3782ba	-0.044802405
143	0xbd018277	-0.03161856
144	0x3dabf442	0.08396198
145	0x3cbb5830	0.0228692
146	0x3d7af7b5	0.061271388
147	0xbe098f4e	-0.13433573
148	0xbd90fe35	-0.07079736
149	0xbdfcc017	-0.12341326
150	0x3cd2ffee	0.025756802
151	0xbcd50ad4	-0.02600614
152	0xbd8e61f9	-0.069522806
153	0x3bbcd35f	0.005762502
154	0xbcfbc51c	-0.030733638
155	0xbd698a27	-0.057016518
156	0xbc71543d	-0.014729557
157	0x3ce1ef59	0.02757995
158	0xbd932e2f	-0.07186543
159	0x3bf96816	0.007611285
160	0xbe141ce8	-0.14464152
161	0xbdc13330	-0.09433591
162	0xbc210f46	-0.009830302
163	0x3d29bfa3	0.041442525
164	0x3d0e1c51	0.034694973
165	0x3b8b4d29	0.0042511416
166	0xbaf42f9a	-0.0018629909
167	0x3c9bb0b3	0.019005155
168	0xbdd6c25e	-0.10486291
169	0x3cabf844	0.020992406
170	0xbd6b36d7	-0.057425346
171	0x3bc17d2f	0.0059048156
172	0xbe548083	-0.20752148
173	0xbddb2ce4	-0.107019216
174	0xbe8255d4	-0.25456107
175	0xbdd8197d	-0.105517365
176	0x39d2c994	0.0004020451
177	0x3d62d2b4	0.055376723
178	0xbe548298	-0.20752943
179	0x3d846638	0.06464809
180	0xbdf776ec	-0.120832294
181	0xbe1533fc	-0.14570612
182	0xbddb68ac	-0.10713324
183	0x3d6af68c	0.05736403
184	0xbd867882	-0.06565954
185	0xbcf7d362	-0.030252162
186	0xbd600792	-0.05469472
187	0x3c1eac7e	0.00968468
188	0xbe543283	-0.20722394
189	0xbcc99083	-0.024605041
190	0xbdb829e8	-0.08992368
191	0x3e1f4fac	0.15557736
192	0x3dae4d0b	0.085107885
193	0xbe006f3e	-0.12542436
194	0xbdaa23ff	-0.08307647
195	0xbcdf067c	-0.027224772
196	0xbce8588c	-0.028362535
197	0x3d6ec109	0.05828956
198	0xbd8bfacf	-0.06834947
199	0xbd4347a0	-0.04767573
200	0x3c9b2faa	0.018943626
201	0x3c67516d	0.0141185345
202	0x3c21dc41	0.009879173
203	0xbca10140	-0.019653916
204	0x3d8939f5	0.067005076
205	0xbc90123c	-0.01758682
206	0xbd1767db	-0.03696428
207	0xbc934694	-0.01797799
208	0xbe2e3be7	-0.17015038
209	0xbcfe87e7	-0.031070663
210	0xbde47ed6	-0.111570045
211	0xbcd11c3e	-0.025526162
212	0xbe0174d6	-0.12642226
213	0xbbdd9176	-0.006761725
214	0xbcebc273	-0.028779244
215	0x3c2a35f4	0.01038884
216	0xbd8c53c0	-0.068519115
217	0xbd1789cd	-0.03699665
218	0x3c96dc45	0.01841558
219	0x3c4e6cce	0.012599183
220	0x3c5a34c4	0.013318244
221	0xbda63a0f	-0.081165425
222	0x3d9fd0d9	0.078035064
223	0x3cf7d3da	0.030252386
224	0x3c908dfe	0.017645832
225	0xbd663450	-0.056202233
226	0xbe0cc13f	-0.13745593
227	0xbcc25a5e	-0.023724731
228	0xbe3d021b	-0.18457834
229	0x3d3324ec	0.043736383
230	0xbdf46347	-0.11932998
231	0x3d44c8ca	0.04804305
232	0xbd0dad98	-0.03458938
233	0x3d1efc12	0.03881461
234	0xbd59d4ed	-0.053181577
235	0xbdf4dcd6	-0.119561836
236	0x3d104cb2	0.035229392
237	0xbd02dc18	-0.03194818
238	0xbe25e9b5	-0.16202433
239	0x3d4ac7b6	0.049506865
240	0x3cf9a93e	0.030476209
241	0x3de10fcd	0.10989342
242	0x3d18b582	0.037282474
243	0xbd93ffc4	-0.07226518
244	0x3d13e1f5	0.03610416
245	0xbd771b29	-0.060328636
246	0xbdecc4ca	-0.11560972
247	0x3c4d4f86	0.012531167
248	0xbd2c1a6b	-0.04201738
249	0xbe0a1621	-0.13485004
250	0x3cec959b	0.028879931
251	0xbced2ed3	-0.028952992
252	0xbe7134dd	-0.23555322
253	0x3d3f4547	0.046696927
254	0xbda1eea7	-0.079068474
255	0x3d8a6421	0.06757379

fc2.bias f4 [256]
0	0xbb53807a	-0.0032272623
1	0xbd794da6	-0.060865067
2	0x3d1e1992	0.038598605
3	0x3dc69da2	0.09698035
4	0xbbdc9743	-0.006731899
5	0xbc8ab551	-0.016932162
6	0xbd063450	-0.032764733
7	0x3d02b2c0	0.03190875
8	0xbc2117ef	-0.009832366
9	0x3c53d329	0.0129287625
10	0xbd878aae	-0.06618248
11	0x3d874be5	0.066062726
12	0xbc928c7e	-0.017889258
13	0x3cc7fabe	0.024411555
14	0x3d7d3c3d	0.061825026
15	0xbd84fc92	-0.064934865
16	0x3d01e8f7	0.031716313
17	0x3c877ce9	0.016539054
18	0xbd0f03e6	-0.034915827
19	0x3d28ae39	0.041181777
20	0xbc79474d	-0.015214753
21	0xbc79de56	-0.015250763
22	0x3d267f6e	0.04064887
23	0x38bc3ee0	8.97625e-05
24	0x3d47a3bf	0.048740145
25	0x3d74f6bf	0.059805628
26	0xbd974d5c	-0.07387802
27	0x3c686a07	0.014185435
28	0xbd3b4197	-0.04571685
29	0xbd20e081	-0.039276604
30	0xbd94ac4e	-0.07259427
31	0xbce0d311	-0.027444394
32	0xbdb43fdd	-0.088012435
33	0xbce9261a	-0.028460551
34	0x3cbd6707	0.023120416
35	0x3d31f62e	0.043447666
36	0xbd649062	-0.055801757
37	0x3cc3a697	0.023883147
38	0x3c4daca4	0.012553368
39	0xbd6885e6	-0.05676832
40	0x3d489e18	0.048978895
41	0x3d0b1c65	0.033962626
42	0xbdce7fc4	-0.10082963
43	0x3ca31b65	0.019910524
44	0xbc44ec7f	-0.012019276
45	0xbd79d61e	-0.060995214
46	0xbd0017be	-0.031272642
47	0x3d1c9764	0.038230315
48	0x3c80d2c5	0.015725503
49	0xbca6d4c5	-0.020365128
50	0xbace706e	-0.0015750059
51	0xbc9c3637	-0.01906882
52	0xbd362b30	-0.04447478
53	0xbc1b8838	-0.009492926
54	0xbcf2f994	-0.029660024
55	0xbd8e4257	-0.06946247
56	0x3d1ef6f3	0.038809728
57	0x3c9d2b18	0.019185588
58	0x3d83e7ad	0.06440673
59	0xbd8e1f59	-0.06939573
60	0xbdaf81db	-0.0856969
61	0xbd840f31	-0.0644821
62	0xbd7f73e4	-0.06236638
63	0xbc9a6681	-0.018847706
64	0x3c976b76	0.018483859
65	0x3d5bad42	0.05363203
66	0xbacfc98c	-0.0015852912
67	0xb911ef02	-0.00013917315
68	0xbd4e8455	-0.05041917
69	0xbc81a916	-0.015827697
70	0x3d0e5994	0.034753397
71	0x3d856d41	0.06514979
72	0xbc95c0f3	-0.018280482
73	0x3c928310	0.017884761
74	0xbd6470da	-0.055771686
75	0xbc1c3751	-0.009534673
76	0xbd750621	-0.059820298
77	0xbcb5dd6f	-0.022200314
78	0xbd11f1a6	-0.035630845
79	0x3d632eb7	0.055464473
80	0x3d2cb928	0.042168766
81	0xbda5aa6d	-0.08089147
82	0x3cc308a8	0.023807839
83	0xbdac111b	-0.084017
84	0x3d197d68	0.037473112
85	0x3d104560	0.03522241
86	0xbac1680f	-0.0014755743
87	0x3cc85442	0.02445424
88	0x3cce7dd2	0.02520648
89	0x3d29fe87	0.0415025
90	0xbd9a8983	-0.075457595
91	0xbd0c0fea	-0.034194864
92	0xbd454bd6	-0.048168026
93	0x3d3a1eb1	0.045439426
94	0xbc5473cc	-0.012967061
95	0xbd2735d8	-0.040822834
96	0xbc18f00a	-0.0093345735
97	0xbd9d2690	-0.07673371
98	0xbc9af4ca	-0.018915553
99	0xbd0b6106	-0.034028076
100	0xbde32e2c	-0.11092791
101	0x3c3b49e4	0.011431191
102	0xbd34f777	-0.044181313
103	0xbc8d0700	-0.017215252
104	0xbc6401b9	-0.013916426
105	0xbc97554d	-0.018473292
106	0xbd2e2922	-0.042519696
107	0xbd1e188a	-0.03859762
108	0x3d2a9e6e	0.041654997
109	0xbd8f2b32	-0.06990661
110	0xba8b5647	-0.0010630571
111	0xbcca407f	-0.024688957
112	0xbc170308	-0.009217031
113	0xbd900fa1	-0.07034231
114	0x3d694f25	0.056960244
115	0xbd549591	-0.05190045
116	0xbd639f85	-0.05557205
117	0x3cd0811e	0.025452193
118	0xbdb3d1fe	-0.08780287
119	0xbc9f03a5	-0.019410918
120	0xbd9ff8d1	-0.0781113
121	0xbd98dddd	-0.07464192
122	0x3d348164	0.04406871
123	0x3d33b688	0.043875247
124	0x3c87cbc0	0.016576648
125	0xbb291099	-0.0025797246
126	0x3d0e5b65	0.03475513
127	0xbc351896	-0.011053225
128	0x3d27b395	0.040942747
129	0xbd869cd3	-0.065728806
130	0xbc71680a	-0.0147342775
131	0xbd9a6dd1	-0.07540477
132	0xbd126035	-0.03573628
133	0xbda7b9bc	-0.08189723
134	0xbbe1c003	-0.0068893447
135	0xbd11dac7	-0.035609033
136	0x3bc5b813	0.0060339062
137	0xbd36dbaa	-0.04464308
138	0xbc6da54b	-0.014504741
139	0xbd546b12	-0.051859923
140	0xbd2f2307	-0.042758014
141	0x3c01919c	0.007908251
142	0xbd6ddc49	-0.05807141
143	0x3ccf4a90	0.025304109
144	0x3d98a9d3	0.074542664
145	0xbcc22329	-0.023698406
146	0xbcad0bec	-0.021123849
147	0xbd9bfb08	-0.0761624
148	0xbd60b822	-0.054863103
149	0xbd9ecabc	-0.07753512
150	0xbd9e4da3	-0.07729652
151	0xbc82982c	-0.015941702
152	0x3bbb2aaa	0.005711873
153	0xbc436b3e	-0.011927424
154	0xbbe3f198	-0.0069562905
155	0xbd844c7d	-0.064599015
156	0x3ce1b5f5	0.027552584
157	0x3b4e5dca	0.0031489008
158	0xbc7209f1	-0.014772878
159	0xbd81522a	-0.063145
160	0x3d55c93d	0.05219387
161	0x3d53dc22	0.051723607
162	0x3bb3c41a	0.0054860236
163	0x3d75142c	0.05983369
164	0x3ab14392	0.0013524166
165	0xbd40819b	-0.0469986
166	0xbb3b0478	-0.00285366
167	0xbd923bd1	-0.07140315
168	0xbd146bec	-0.036235735
169	0xbd62a245	-0.055330534
170	0x3d127705	0.035758037
171	0xbd173427	-0.03691497
172	0xbc8e939e	-0.017404374
173	0x3cff7a7d	0.031186337
174	0x3d8192d3	0.063268326
175	0xbc8a0528	-0.016848162
176	0xbdd39cbb	-0.10332628
177	0x3d758ae6	0.059946917
178	0x3cdafae4	0.026730962
179	0x3c5ac9ca	0.013353774
180	0x3cbab6e5	0.022792289
181	0x3c418c63	0.011813256
182	0xbca14b3f	-0.0196892
183	0x3cc10df6	0.023566227
184	0xbd7a42ab	-0.061098736
185	0x3b2a2284	0.0025960514
186	0xbbb78336	-0.0056003584
187	0xbbdfca90	-0.0068295673
188	0xbd8380cf	-0.06421053
189	0x3ce5377c	0.027980559
190	0x3d1ca88f	0.038246688
191	0x3cf4fb3b	0.029904952
192	0xbd8ed00a	-0.06973274
193	0xbbf6a282	-0.0075266967
194	0x3cb14fc3	0.021644479
195	0xbd963ee4	-0.07336214
196	0x3d5ff780	0.054679394
197	0x3d2d1d0d	0.042264033
198	0x3d1418e0	0.036156535
199	0xbd0e4e54	-0.03474267
200	0xbddd37b3	-0.108016394
201	0x3b6f4e92	0.0036515337
202	0xbdc1d158	-0.09463757
203	0xbc099fd1	-0.00839992
204	0x3c9a86ad	0.018863047
205	0xbd2d9ce2	-0.042385943
206	0xbd9097b6	-0.070601866
207	0x3d2c965f	0.042135593
208	0xbbf91115	-0.0076009133
209	0x3c889f0a	0.016677398
210	0x3cba9035	0.022773841
211	0x3abb9799	0.0014312147
212	0xbcafa0be	-0.021438953
213	0x3cac6067	0.021042062
214	0x3cf3c67f	0.029757736
215	0x3be88e01	0.0070970063
216	0xbd0bb978	-0.034112424
217	0xbbe90944	-0.0071117003
218	0xbd8fbaf7	-0.070180826
219	0x3ca009be	0.019535895
220	0xbbef74ef	-0.0073076407
221	0xbcbff95e	-0.023434337
222	0xbd2566c2	-0.0403812
223	0x3bc2f840	0.005950004
224	0x3d990f80	0.074736595
225	0xbd17e811	-0.03708655
226	0x3c817f01	0.01580763
227	0xbc509cdd	-0.012732712
228	0x3d4cc4b9	0.049992297
229	0xbc0a4952	-0.0084403325
230	0x3cc3a5bf	0.023882745
231	0xbd9b271a	-0.075758174
232	0x3c81007f	0.015747307
233	0xbdc74ea2	-0.09731795
234	0x3d3a8ec4	0.04554631
235	0x3c383ec2	0.011245431
236	0x3bd81508	0.006594304
237	0x3d12fad6	0.035883747
238	0xbd5d5042	-0.054031618
239	0x3bf7cabe	0.0075620105
240	0x3cc77508	0.024347797
241	0x3ba1064d	0.004914081
242	0x3ba51ea1	0.0050390516
243	0xbd77219d	-0.06033479
244	0x3cdc14c3	0.026865369
245	0x3d4d45ee	0.05011552
246	0x3b83f69b	0.0040272004
247	0xbbeceb0d	-0.0072301687
248	0xbce12dd2	-0.02748767
249	0xbe1c3ee3	-0.15258364
250	0x3cd62d3b	0.026144614
251	0x3d8b28db	0.06794902
252	0x3ca613d7	0.020273132
253	0x3ce0683a	0.02739345
254	0xbc9d5283	-0.019204384
255	0xbc3edad2	-0.0116488505

fc3.weight f4 [64, 256]
0	0xbc6e1833	-0.014532137
1	0xbcfb3bee	-0.030668225
2	0xbc88735f	-0.016656576
3	0xbcaea597	-0.021319194
4	0x3d3ae38e	0.04562717
5	0x3d6b2b41	0.057414297
6	0x3cc8cf2c	0.02451285
7	0x3d4261d2	0.04745657
8	0x3d026631	0.03183574
9	0x3c76a97a	0.015055055
10	0xbd772453	-0.060337376
11	0x3d6afe58	0.057371467
12	0x3dd6b79d	0.1048424
13	0x3d983ce9	0.07433493
14	0xbcc73b1d	-0.02432018
15	0x3c6f7dd5	0.014617403
16	0xbb9226ee	-0.004460207
17	0xbd511ea3	-0.051054608
18	0xbd0c3fc7	-0.03424051
19	0x3d6a5f4d	0.057219792
20	0xbcbac62b	-0.022799572
21	0xbcd2cb16	-0.025731605
22	0xbd2b0396	-0.041751467
23	0xbdc460dd	-0.09588788
24	0xbccb8c0f	-0.024847059
25	0xbd142ae2	-0.03617371
26	0x3c8a1642	0.016856316
27	0x3bd46fdb	0.006483061
28	0x3d47eead	0.048811603
29	0x3d68d496	0.056843363
30	0xbd49cc6e	-0.049267225
31	0x3c6d4c4f	0.014483525
32	0x3de7c845	0.11317495
33	0x3ca2cb22	0.019872252
34	0x3c4f9b76	0.012671342
35	0x3dbafc77	0.09130185
36	0x3cb5d1c4	0.02219475
37	0xbbf9d2b6	-0.0076239957
38	0xbdfe9331	-0.12430418
39	0x3d2ccce7	0.042187598
40	0x3abc7061	0.0014376753
41	0x3d07f9bf	0.03319716
42	0x3a5f37fd	0.0008515118
43	0x3d478c1f	0.048717614
44	0xbc0cbfeb	-0.008590679
45	0xbb3ec339	-0.002910806
46	0xbc56ae28	-0.0131030455
47	0x3d2ae054	0.041717842
48	0x3c7ccaee	0.015429242
49	0x3c98918e	0.018624093
50	0xbcd95bf9	-0.026533114
51	0x3d8057d4	0.06266752
52	0xba49f68d	-0.00077042804
53	0xbd2fccd2	-0.04291994
54	0x3cf50177	0.029907925
55	0xbd8dc244	-0.06921819
56	0xbc4604e3	-0.012086126
57	0xbcae6ecb	-0.021293065
58	0x3d1e5b3f	0.038661238
59	0x3d30bcb7	0.043148722
60	0x3c9570a0	0.01824218
61	0x3cb84515	0.022493878
62	0xbc035c33	-0.0080175875
63	0xb9a91794	-0.0003225176
64	0x3cbe3b59	0.023221659
65	0x3d2582f7	0.0404081
66	0x3c176d13	0.009242314
67	0xbbbeb440	-0.0058198273
68	0x3b8e9126	0.004350799
69	0xbda39a05	-0.07988361
70	0x3c1acba5	0.009447967
71	0x3d4102f3	0.047121953
72	0xbc4e6f28	-0.012599744
73	0xbde66489	-0.11249644
74	0xbcdc9f71	-0.026931496
75	0x3c5b29f3	0.013376701
76	0x3c4c24ed	0.012459976
77	0x3c90d5d6	0.01768009
78	0x3d86fbd6	0.06591003
79	0x3ca925e6	0.020647954
80	0x39ef355a	0.00045625382
81	0xbdb1cc64	-0.086815625
82	0x3bed6399	0.007244539
83	0xbca7c565	-0.020479867
84	0x3b62c298	0.003460085
85	0x3d10a3f2	0.0353126
86	0xbd06f02d	-0.032943893
87	0xbb9bc83c	-0.0047540944
88	0xbc913469	-0.017725186
89	0xbd904a03	-0.070453666
90	0x3b0e47b8	0.0021710228
91	0x3cad534e	0.021157887
92	0xbd0e189a	-0.03469143
93	0x3ceda1f3	0.029007887
94	0x3d063595	0.032765944
95	0x3d041b67	0.032252695
96	0xbc322198	-0.010872267
97	0x3d01db1c	0.0317031
98	0x3d908266	0.070561215
99	0xbcb8baf3	-0.022550082
100	0x3ba8bbeb	0.0051493547
101	0xbb743086	-0.0037260368
102	0x3d6ab356	0.057299934
103	0x3d342f83	0.043990623
104	0x3c0d74ef	0.008633836
105	0xbc4dd777	-0.012563578
106	0x3ce28738	0.027652368
107	0xbc89b299	-0.016808795
108	0x3d4e768e	0.05040603
109	0x3dce80bb	0.10083147
110	0x3b2d5e4e	0.0026453915
111	0xbc6d4925	-0.014482771
112	0xbc961869	-0.018322187
113	0xbd58c6f3	-0.052924108
114	0x3cf1cd22	0.02951676
115	0x3d43079a	0.04761467
116	0xbc0619ce	-0.008184863
117	0x3c8b6a44	0.017018445
118	0x3dd4230a	0.10358246
119	0xbcb7a6b9	-0.022418367
120	0xbd66847d	-0.056278694
121	0xbdf27bc0	-0.1184001
122	0x3d4a8008	0.049438506
123	0xbb6839c8	-0.003543483
124	0x3d1b92e1	0.03798187
125	0x3cea4e87	0.028601898
126	0xbb4211c8	-0.002961265
127	0xbd2f9456	-0.042866074
128	0x3d99fa03	0.07518389
129	0x3d2cb1d3	0.042161774
130	0x3d1350e4	0.035965815
131	0xbcaf7955	-0.02142016
132	0x3b98318f	0.0046445797
133	0xbd13de73	-0.036100816
134	0xbcfd8081	-0.030945064
135	0xbd85d512	-0.065347806
136	0xba1d2dfb	-0.00059959263
137	0x3c01d56c	0.007924419
138	0x3bc74b2e	0.00608196
139	0x3c79a325	0.015236651
140	0x3d44b45c	0.048023567
141	0xbcb3b088	-0.021934763
142	0xbb65d211	-0.0035067836
143	0x3cee4475	0.029085377
144	0xbd9a2f01	-0.075284965
145	0xbd492a02	-0.049112327
146	0x3d2e153a	0.042500712
147	0xbc8c6ca4	-0.017141648
148	0x3c908088	0.017639413
149	0xbc08641f	-0.008324652
150	0xbdcf170a	-0.10111816
151	0x3ca024ec	0.019548856
152	0xbc89843e	-0.01678669
153	0xbcd8879f	-0.026431857
154	0xbbe9dfdd	-0.0071372823
155	0xbd46dc5a	-0.048549987
156	0xbcc9840f	-0.024599103
157	0xbe2ed68b	-0.17074029
158	0x3c37b8c2	0.011213483
159	0xbb069b36	-0.002053929
160	0xbc0ab949	-0.008467027
161	0xbcbd823a	-0.023133386
162	0xbd3cee53	-0.04612572
163	0x3d83ccfe	0.064355835
164	0xbd573277	-0.05253836
165	0xbba72012	-0.0051002586
166	0xbdc96600	-0.09833908
167	0xbd5ecf91	-0.05439717
168	0x3cf80eb3	0.030280447
169	0xbc5d964d	-0.013524604
170	0x3d2c88a9	0.042122517
171	0x3ca600d5	0.020264069
172	0x3d16cdf5	0.03681751
173	0xbd7e4ed7	-0.062086906
174	0x3d26e3e6	0.040744685
175	0x3d7d93e7	0.06190863
176	0xbcc62feb	-0.024192771
177	0x3cac6b21	0.021047177
178	0xbc6baa3b	-0.014383848
179	0xbd77930d	-0.060442973
180	0x3d571f8e	0.052520327
181	0xbdf2aea8	-0.11849719
182	0xbd116e3b	-0.035505515
183	0x3ce0c39d	0.027437026
184	0xbd2cd64f	-0.042196568
185	0x3b99ce5e	0.0046937903
186	0xbc3bbfc5	-0.011459296
187	0x3b323a37	0.0027195343
188	0xbb9fd398	-0.004877519
189	0xbd465de2	-0.048429377
190	0x3dfcb8f4	0.123399645
191	0x3cb52a5b	0.022114923
192	0xbd2092b3	-0.039202403
193	0x3ca49ab0	0.020093292
194	0xbd84ea8f	-0.06490051
195	0x3d5db36d	0.054126192
196	0x3bd14214	0.006386051
197	0x3bb78341	0.0056003635
198	0xbd1d171c	-0.038352117
199	0xbcb4fb58	-0.022092506
200	0x3ce613b5	0.028085569
201	0x3be9c197	0.0071336734
202	0xbd5f7e19	-0.054563615
203	0x3cf42f94	0.029807843
204	0x3ca3ae45	0.01998056
205	0x3d0299cb	0.03188495
206	0x3b94c9a4	0.004540639
207	0xbc0a7723	-0.008451256
208	0x3d07b0ba	0.033127524
209	0xbcf8c5d8	-0.030367777
210	0x3cbcf330	0.02306518
211	0xbcebb613	-0.028773343
212	0xbcf2cded	-0.029639209
213	0x3d75b9d7	0.059991684
214	0x3d5a5a40	0.053308725
215	0x3da2fbdf	0.07958197
216	0xbd7adf61	-0.061248187
217	0x3d6aeff4	0.057357743
218	0xbd140611	-0.036138598
219	0x3cdee130	0.027206987
220	0xbc888d37	-0.016668899
221	0x3cbf9e5c	0.023390941
222	0x3cb19ec8	0.021682158
223	0xbc8ad1a5	-0.01694567
224	0xbd24d1be	-0.04023909
225	0xbdc4c2ff	-0.09607505
226	0xbd35e393	-0.044406485
227	0xbddf9f52	-0.1091906
228	0xbd638e79	-0.055555794
229	0x3cd44720	0.025912821
230	0xbccef533	-0.025263404
231	0xbd1be0f7	-0.03805634
232	0x3c3e9057	0.011631093
233	0xbc4f0cb1	-0.012637303
234	0x3d016b90	0.03159672
235	0xbd127350	-0.0357545
236	0xbc5175d4	-0.01278444
237	0x3d2ed98a	0.04268793
238	0x3cb17bcd	0.021665478
239	0x3d6d9edd	0.058012832
240	0xbd266325	-0.040621895
241	0xbc70e992	-0.014704125
242	0xbd03b80e	-0.03215795
243	0x3d2c84cc	0.042118832
244	0xbc1bad18	-0.009501718
245	0xbd02d713	-0.031943392
246	0xbd8fb7e8	-0.07017499
247	0x3c21562e	0.009847207
248	0xbc51a342	-0.012795271
249	0xbded0dac	-0.11574873
250	0x3cd49a5f	0.025952516
251	0x3c3ba0c7	0.0114519065
252	0xbd927115	-0.07150475
253	0x3d6eee11	0.058332507
254	0xbcca97d7	-0.024730606
255	0x3d8f7216	0.07004182

fc3.bias f4 [64]
0	0xbaab9ae1	-0.0013092422
1	0x3da3a080	0.07989597
2	0x3cb16797	0.02165584
3	0x3d84ca05	0.06483845
4	0xbdd58d93	-0.10427394
5	0xbcc55345	-0.024087558
6	0xbd624e5f	-0.05525052
7	0xbd9f560e	-0.077800855
8	0xbd036c20	-0.032085538
9	0x3da28f43	0.07937481
10	0xbc046e31	-0.008082912
11	0xbd5e4273	-0.05426259
12	0x3d7e7a13	0.062128138
13	0xbc4d3250	-0.0125242025
14	0xb9e5ddcd	-0.00043843538
15	0x3d01ecc2	0.03171993
16	0xbcac81ab	-0.021057924
17	0x3da5ad7f	0.080897324
18	0x3cd83bad	0.026395643
19	0x3cc26e32	0.023734186
20	0x3d39402f	0.045227226
21	0xbd7e549d	-0.062092412
22	0xba0072ba	-0.0004899908
23	0x3d5ed468	0.054401785
24	0x3d8b489d	0.06800959
25	0xbd8caf02	-0.068693176
26	0x3d022020	0.031768918
27	0x3db3a144	0.08770993
28	0x3b623905	0.003451885
29	0x3bcb3f8b	0.0062026433
30	0x398627de	0.00025588175
31	0x3d7c3db5	0.061582286
32	0x3caefd08	0.02136089
33	0x3d6c7406	0.057727836
34	0x3d54ec7c	0.05198334
35	0x3d63d669	0.0556244
36	0x3ded127d	0.11575792
37	0x3d6fb851	0.058525387
38	0x3c227bcd	0.009917212
39	0xbcbd2170	-0.023087233
40	0x3d8e7706	0.06956296
41	0xbd5d6c83	-0.054058563
42	0xbc49c17f	-0.0123141995
43	0x3d4b6c21	0.049663667
44	0xbd69fa03	-0.057123195
45	0xbd5ff56f	-0.054677423
46	0x3b7c7276	0.0038520372
47	0xbdb04f52	-0.08608879
48	0xbd33278c	-0.043738887
49	0xbbfa2bc2	-0.007634611
50	0x3ba5e9c2	0.0050632665
51	0x3d2800cf	0.041016396
52	0xbd61257d	-0.054967392
53	0xbcc320dd	-0.023819381
54	0x3d258270	0.040407598
55	0xbb9d393c	-0.0047980826
56	0xbda76dde	-0.081752524
57	0x3d269e95	0.04067858
58	0x3ccd1af6	0.02503727
59	0x3d610ee6	0.05494585
60	0x3d9dcc68	0.07705003
61	0x3d5ebcf5	0.054379422
62	0x3d21fdd3	0.039548706
63	0x3c8e93a3	0.017404383

fc4.weight f4 [1, 64]
0	0xbcc7361b	-0.024317792
1	0x3dc65b62	0.09685399
2	0xbd87b10c	-0.06625566
3	0x3d48b31e	0.048998944
4	0x3d2aee6a	0.041731276
5	0xbccea4b0	-0.025225013
6	0xbd342d5e	-0.043988578
7	0x3d168ec3	0.036757242
8	0x3dbd2a44	0.09236577
9	0xbd586a82	-0.05283595
10	0xbc91dad9	-0.01780455
11	0x3cda1be2	0.026624624
12	0x3d69c538	0.057072848
13	0xbd1b5f8b	-0.037932914
14	0x3d07c247	0.03314426
15	0x3dee30d4	0.11630407
16	0xbd700e61	-0.058607463
17	0x3d713621	0.058889512
18	0xbd5fc495	-0.054630835
19	0xbd2cee41	-0.042219404
20	0x3db0e58d	0.08637533
21	0x3d033fe6	0.03204336
22	0x3cc2d2b1	0.023782106
23	0xbd0219ff	-0.031763073
24	0x3cd86c55	0.026418844
25	0xbd4486d8	-0.04798016
26	0xbd0c6919	-0.034279916
27	0x3d2157bd	0.039390314
28	0x3d52dec2	0.05148197
29	0xbd149bb2	-0.036281295
30	0xbd8f2455	-0.06989352
31	0x3da626fd	0.08112905
32	0xbd67afbf	-0.05656409
33	0x3d7611ec	0.060075685
34	0x3cbca6ef	0.023028819
35	0xbcdbb2b5	-0.026818613
36	0xbcf16436	-0.02946673
37	0x3d21b941	0.039483313
38	0xbd9e8e90	-0.077420354
39	0x3d6f4c64	0.05842246
40	0x3d123238	0.035692424
41	0x3d15665d	0.036474574
42	0x3df8db4b	0.12151202
43	0xbd0a7225	-0.033800263
44	0x3d26b694	0.040701464
45	0xbd01b9a2	-0.031671174
46	0xbd3a5a36	-0.045496188
47	0x3caa214f	0.020767836
48	0x3d4dda41	0.05025697
49	0xbd372dc7	-0.04472139
50	0x3d2ca447	0.042148855
51	0xbc387892	-0.011259215
52	0x3d42029a	0.047365762
53	0xbd7c0ca5	-0.061535496
54	0xbcbbc9f5	-0.022923449
55	0xbd207124	-0.0391704
56	0xbd7e65d9	-0.06210885
57	0x3cbd62fa	0.023118485
58	0x3cc93005	0.02455903
59	0xbd1bf11a	-0.03807173
60	0x3da53b36	0.08067934
61	0xbcfd9285	-0.030953655
62	0x3d94108b	0.07229718
63	0xbcaf6cde	-0.021414217
