checkpoint_actor.pth (torch_old, 191942 bytes, 8 tensors)

fc1.weight f4 [256, 24]
000000 a9 8a 1e 3e ed ca 79 be d8 7f 2b 3e ec a2 51 be
       0.15482582 -0.24393816 0.16747987 -0.20472306
000010 87 03 dc 3d 86 92 18 be dd 6f 7e 3d 2f 19 d8 bd
       0.1074286 -0.14899644 0.0621184 -0.105516784
000020 c4 e5 e4 bd e9 c1 f7 3c 63 2b cf bd 0f 1d b9 3d
       -0.11176637 0.03024383 -0.10115697 0.090387456
000030 b1 34 3b 3e 2a d7 3e be b3 62 f3 3d 44 16 01 3e
       0.18281819 -0.18636766 0.1188406 0.1260615
000040 22 d1 85 be 19 50 20 bc 45 d6 58 3d 40 fd 3d 3d
       -0.26136118 -0.009784722 0.05293872 0.046384096
000050 43 5f 50 be 2f 53 0b 3e 2a 4d e8 bd 89 0a b2 3c
       -0.2034884 0.13605951 -0.11342843 0.02173354
000060 fc 69 43 3d fe 49 b4 3e e6 6d c2 bb a8 66 1e be
       0.047708496 0.35212702 -0.005933511 -0.15468848
000070 92 3f 5e 3e 9b 6e 0c be 5c f4 38 ba 24 8e 1d 3d
       0.21703938 -0.13714068 -0.00070554554 0.038465634
000080 3f 33 45 3d 8e a2 4b 3e a4 da 95 3d 11 7e f1 bd
       0.048144575 0.19886228 0.07317093 -0.117916234
000090 55 3c bc bb 44 fb 83 3e 23 26 63 3b f3 74 17 be
       -0.005744497 0.25777638 0.0034660182 -0.14790706
0000a0 34 3a 64 be 08 56 3d be f9 35 15 3e 1c a7 c4 bd
       -0.22287828 -0.1848985 0.1457137 -0.09602186
0000b0 9b 80 f0 bc 74 23 95 3e 8d 27 57 be 91 48 09 3d
       -0.029358199 0.2912861 -0.21011181 0.03351647
0000c0 51 09 22 be 29 ca b5 3c 91 f4 05 be 34 b9 5d bd
       -0.15823866 0.022191124 -0.13081576 -0.0541317
0000d0 1f 43 a7 3d 32 1b 99 be 35 10 a7 bc b6 cf b5 bc
       0.08167099 -0.2990356 -0.02039347 -0.02219377
0000e0 5f b6 58 be be d7 6c 3e b8 0b e2 3b 53 09 ac bd
       -0.21163319 0.23129174 0.0068983696 -0.08400216
0000f0 71 41 cb 3d 03 96 28 be f7 dd 36 3e 8b ef a4 bd
       0.09924591 -0.16463475 0.1785811 -0.08053502
000100 92 7e 04 be 10 17 57 3e 52 f7 2d bd 89 09 e7 bd
       -0.12938908 0.21004891 -0.04247219 -0.112811156
000110 d3 a5 14 be cc b3 e2 be d6 73 e8 3d 25 ab 46 3e
       -0.14516382 -0.442778 0.11350219 0.19401224
000120 dd da d5 3d 64 77 50 3e ab c4 4b bc f9 94 77 3e
       0.104421355 0.20358044 -0.012437026 0.24177922
000130 f7 78 70 3e 60 de 92 bd 5c d6 54 bd 3e a6 b9 3e
       0.23483644 -0.07171321 -0.05196224 0.36259645
000140 d9 5a 0d bd 55 9d fc 3c 1d 92 33 3d 85 ca b3 bd
       -0.034510467 0.03083674 0.043840516 -0.08778862
000150 fa 68 9e bd b5 5d 7c be c3 49 6c bd 2e b0 27 3e
       -0.077348664 -0.24645121 -0.057687532 0.16375801
000160 af 7f 34 bd 62 ca 0a 3c 9d 4f 66 bd 53 73 d5 bc
       -0.04406708 0.008471103 -0.05622827 -0.026055967
000170 f5 72 e5 bc cc 18 58 bd 2e bd 49 3c 88 4e cf 3d
       -0.028008917 -0.052758023 0.01231317 0.101224005
000180 c7 0a c9 3d 84 f4 43 3d bd eb 3e 3c d2 aa 30 be
       0.09816509 0.04784061 0.011652884 -0.17252663
000190 20 49 c4 3d 86 34 31 3e e5 f7 49 3d 1c 75 9c be
       0.0958426 0.17305192 0.049308676 -0.30558097
0001a0 3a 86 4b be 46 41 9d 3e 4e 13 07 3e 66 0b 5a bd
       -0.19875422 0.30713862 0.13190958 -0.053233527
0001b0 57 ce bc bd cc 7f 65 bd af e4 f5 3d 2a bb a4 be
       -0.09219044 -0.05603008 0.120065086 -0.32174045
0001c0 9f f2 a2 3d 17 8f 83 3d 7e c2 a9 3d b6 ba 7d be
       0.079564326 0.064237766 0.082890496 -0.24778256
0001d0 e5 01 29 3e 3a 2d 09 3e 45 c3 d8 bc 8b bb 8f be
       0.16504629 0.13396159 -0.0264603 -0.2807277
0001e0 ee a0 2b bd 48 dc d9 3b e9 09 29 bd 26 7c ed 3e
       -0.04190152 0.006648574 -0.041269217 0.4638378
0001f0 44 2a 8a bd ea a2 ac bd 2a 1c 1d be b8 97 bb 3e
       -0.06746343 -0.08429511 -0.15342775 0.3663919
000200 6f 97 68 bd 99 08 6a 3c 39 0a 03 be a5 3d 9b 3e
       -0.056785043 0.014284276 -0.12796868 0.3032047
000210 4a 3b d6 3d 1a df c3 bd 2d ef 30 3e 03 00 65 3e
       0.10460527 -0.095640376 0.17278738 0.22363286
000220 79 fb e8 3d 56 b7 70 bd 49 63 32 3c 70 99 87 bd
       0.113760896 -0.058768593 0.010887929 -0.06621063
000230 b0 7d 9c 3d c7 1d 0c be 12 68 76 3d 57 22 55 bd
       0.076411605 -0.13683234 0.060157843 -0.052034702
000240 eb 71 d5 3d 8f 47 da 3e e1 58 af 3d 73 63 a7 3d
       0.10422119 0.4263272 0.08561874 0.08173265
000250 dc 52 33 bd aa 5b a8 3e c4 07 1f 3e 61 1a e8 3d
       -0.043780193 0.32882434 0.15530306 0.113331564
000260 2c 58 96 bd 98 3a c7 3e cf 2b 8d 3c 65 83 22 3e
       -0.07341036 0.3891189 0.017232804 0.15870436
000270 fe 35 c2 bd d7 e8 bd 3e 0d 8a b6 3d 97 36 14 3e
       -0.094829544 0.37091705 0.0891305 0.1447395
000280 ff 1c 9a 3b 5b 50 85 3d aa 16 d6 3c 22 5e 44 be
       0.0047031636 0.06509467 0.026133854 -0.19176534
000290 68 7b 24 3e 18 7d 8e 39 08 15 2f 3e cc f0 2e be
       0.16062701 0.00027177553 0.17097867 -0.17084044
0002a0 2a 7b 02 be d9 a0 19 be 4a d6 07 be a1 6f 77 be
       -0.12742296 -0.15002765 -0.13265339 -0.24163677
0002b0 da bc bc bc 19 da 49 be b8 1e 9b bb f1 e3 3b 3b
       -0.02303927 -0.19712104 -0.0047338866 0.00286698
0002c0 58 a7 45 bd 9b 19 a5 bd 0b 32 83 3e 14 56 c6 bd
       -0.048255295 -0.080615245 0.25624117 -0.09684387
0002d0 58 8f 2a be 96 7e cd 3d 45 e6 01 be dd 0a 1c be
       -0.16656244 0.1003391 -0.12685497 -0.15238519
0002e0 c3 8e 05 3e bd 80 26 bc 2c 67 62 bc 87 2f be be
       0.1304274 -0.01016253 -0.013818543 -0.37145635
0002f0 5f 02 1d 3e 75 24 e1 3d 60 20 07 3d 5b bd 03 bf
       0.15332936 0.10993282 0.03298986 -0.5146081
000300 4b 0f 18 bd c1 99 d5 be b7 7c 31 3e 10 b7 3a be
       -0.03712396 -0.41718867 0.17332731 -0.18233895
000310 c4 c8 58 3d 51 98 b1 3d 37 e3 23 3e 35 b3 bf be
       0.05292584 0.0867163 0.16004644 -0.37441412
000320 f1 b8 bc bd c2 ca 37 be b0 3a 5e be e1 f4 24 3e
       -0.09214962 -0.1794844 -0.21702075 0.16109039
000330 98 e6 bb bd ed 3b 51 be 1a 5b f7 3d 2f e7 16 3d
       -0.09174842 -0.20433016 0.12077923 0.036841568
000340 bd a3 17 bd 20 af 92 be 09 75 09 3e 47 49 1e 3e
       -0.037021387 -0.28649235 0.13423552 0.1545764
000350 aa 8d 16 be 98 8f b0 be 67 3f 78 bd 69 ad 96 3e
       -0.14702478 -0.34484553 -0.06060734 0.29429176
000360 39 0a ad 3d 4e d1 84 3e 34 02 bc 3c c6 10 95 bd
       0.084492154 0.25940937 0.02295027 -0.0727859
000370 d7 79 46 be 59 71 50 bd 09 09 55 be d4 94 e2 3d
       -0.19382416 -0.050889347 -0.20804228 0.11063543
000380 f9 ca 81 3e ff 08 5d bd 8a 65 1a 3d f0 b9 e7 bd
       0.25350168 -0.053963657 0.03769449 -0.11314762
000390 10 bd 15 be c3 4f de 3d d0 fd 41 bd fc d5 87 be
       -0.14622903 0.10855057 -0.047361195 -0.26530445
0003a0 19 5a 0b 3e 1e 75 75 3e b8 ac bb bd 7c 32 58 bc
       0.13608588 0.23970458 -0.09163803 -0.01319563
0003b0 3b 52 0f be 55 87 43 3e 54 7f 42 be be 88 93 bd
       -0.13996212 0.19094594 -0.18993884 -0.07203816
0003c0 c3 a1 61 3d e5 4e ab 3d fb 3e 71 bd 49 4f 21 be
       0.05508591 0.08364657 -0.058897953 -0.15752901
0003d0 8e 40 55 3e 4e 31 20 3e c9 af 31 3d 86 3d 6d 3d
       0.20825407 0.15643808 0.043380532 0.05792
0003e0 9f 84 a9 3d d1 bb 2f 3e c8 9b 00 be a5 65 fc 3c
       0.082772486 0.1716149 -0.12559426 0.030810187
0003f0 a9 4f 3b be 47 bb 17 be 1b 81 77 3d e1 cc a6 b9
       -0.18292107 -0.14817534 0.06042586 -0.00031814634

fc1.bias f4 [256]
000000 8d a6 29 3e 1c 82 ea bd 28 81 52 bd 3e 35 be bd
       0.1656744 -0.11450598 -0.051392704 -0.09287499
000010 fc 28 3d 3e 24 0f 26 be 78 b4 09 be 82 7e 8e be
       0.18472666 -0.16216713 -0.1344775 -0.27830893
000020 b7 01 ee bd f2 86 63 3d c5 b2 d6 3d b4 ea 14 be
       -0.11621421 0.055548616 0.10483316 -0.14542657
000030 0c 47 c4 bd fe dd 39 3e 21 fb f1 3c c1 a7 4c be
       -0.095838636 0.1815109 0.029538693 -0.19985868
000040 28 5c e8 3b b5 df d1 b9 27 a2 00 3e 6f a9 79 3d
       0.007091064 -0.0004003026 0.12561856 0.0609526
000050 b9 3f 15 3e 5d b6 a8 bd 2e d2 c3 3d 73 c7 6a 3d
       0.1457509 -0.08237908 0.09561573 0.057319116
000060 1b fd 35 be e3 38 57 3e 7a be 21 bc b5 a9 93 bd
       -0.17772333 0.21017794 -0.009872073 -0.072101034
000070 21 18 6b bd be 59 8f 3c 51 51 a2 bc 37 43 3f bd
       -0.057396058 0.017498847 -0.019814165 -0.04669496
000080 eb 98 4f be d7 e5 92 3d 7d a4 8d bd 4c 58 46 3c
       -0.20273177 0.07172745 -0.06916139 0.012106013
000090 99 d5 0d be 19 b7 86 3d 16 aa 54 3d ce ba 55 bd
       -0.13851012 0.06577892 0.05192002 -0.052180104
0000a0 16 1e 80 3d ab a3 24 3e 4c be 04 be 74 72 8d 3d
       0.062557384 0.1607806 -0.12963217 0.06906596
0000b0 28 3f ad 3c 01 34 cc 3d aa 9e 49 3c 3a 93 11 be
       0.02114828 0.099708565 0.012305895 -0.14216319
0000c0 1f 29 fa 3d 65 0e 02 be 36 6e d1 bd b9 79 49 3d
       0.122148745 -0.12700804 -0.10226099 0.04918835
0000d0 f7 19 e1 ba 5c 57 7b 3e b7 75 8b be 37 0f 89 be
       -0.0017173876 0.24545044 -0.27238247 -0.2676942
0000e0 10 d7 e9 bd d2 67 16 3e ea 1e 3d be fc 25 ce 3d
       -0.11417973 0.14688042 -0.18468824 0.10065839
0000f0 80 e7 1a be c8 b4 12 be 24 1d 1b 3e b7 9e 20 be
       -0.15127373 -0.14326775 0.15147835 -0.15685545
000100 0f da cf 3d 86 71 7e bc c7 0c a5 bc cc d9 12 be
       0.10149013 -0.015529996 -0.020147694 -0.14340895
000110 c2 11 28 bd b3 4e eb bd b5 c6 e3 3b 7a b4 ab 3b
       -0.04103256 -0.1148962 0.006951178 0.0052400203
000120 cc 4d e6 3b 99 6d a2 bd 07 e5 1b be 55 87 be bd
       0.007028317 -0.0793106 -0.15224086 -0.09303156
000130 26 0d 12 be 4a 42 c2 bc 8e 2f e6 3d 87 c6 72 3d
       -0.14262828 -0.02371325 0.11239539 0.05927136
000140 e1 26 be bd 07 c5 cc bd 97 5c 11 be 62 1f 3c bd
       -0.09284759 -0.099985175 -0.14195476 -0.045928366
000150 6c f3 2e 3c 6a de 03 3e 6c b9 ea bd 71 3e 4a be
       0.0106781535 0.12877813 -0.11461148 -0.19750382
000160 b8 18 49 bd a4 a4 80 3d 1d f7 80 3d 77 c2 62 3e
       -0.04909584 0.06281403 0.06297133 0.22144495
000170 97 0a 5a 3c f2 0f 87 bd b6 e4 b1 3d 1d 3f 3c 3d
       0.013308189 -0.06594838 0.08686201 0.045958627
000180 91 d5 95 bd 6d ba b3 3d 7c 10 32 3e f3 dc 81 be
       -0.07316125 0.08775792 0.17389101 -0.25363883
000190 3d d5 1d be cc e2 5f 3d e1 2c 11 be 9d b4 24 3d
       -0.15413375 0.05465965 -0.14177276 0.04021131
0001a0 92 4f 2c be c7 70 49 3e 3c 31 93 bd 51 f2 b1 bd
       -0.16827229 0.19671927 -0.07187125 -0.08688796
0001b0 16 c0 14 3e 18 91 46 bd e9 6c 33 3e 34 a7 89 bd
       0.145264 -0.048478216 0.17522015 -0.067213446
0001c0 4c 06 fc 3d 5f 51 9c 3c cf f7 d8 bd ff e0 65 be
       0.123058885 0.01908177 -0.10594141 -0.2244911
0001d0 8a 40 cb 3d dc 0c fd bd 2c 74 5e be 81 4e f3 bd
       0.09924419 -0.12355968 -0.21724004 -0.11880208
0001e0 fd ba 04 3e 36 c4 70 3d 9a 83 2f bd cd a9 6f 3d
       0.12961955 0.05878087 -0.042850114 0.058511544
0001f0 6a 82 22 bd 2b 40 12 bd 59 6c e8 bc 22 9b 14 3e
       -0.039675154 -0.035705727 -0.028371977 0.14512303
000200 97 d9 1b be 96 19 a0 3c e8 44 a9 3d d9 73 f8 3d
       -0.15219723 0.01954345 0.08265096 0.12131471
000210 bb e1 1c be 85 a5 05 3e 5f 2d 02 3e 1f 95 09 3e
       -0.15320484 0.13051422 0.1271262 0.13435791
000220 3e dd 0c 3e c7 81 00 be f7 0e 1d 3d 68 03 30 be
       0.13756272 -0.12549506 0.03834435 -0.171888
000230 22 c0 37 bd ec 69 06 be 96 fe 97 3d ec be 2c 3d
       -0.044860967 -0.13126343 0.07421605 0.042174265
000240 a1 18 90 be a0 fb 46 be 7f c6 14 3d 9e eb 22 be
       -0.2814379 -0.19431925 0.036322113 -0.15910193
000250 c7 0c dd bc b0 97 6e 3d 97 9a 25 be af 2a 4a 3e
       -0.026983632 0.05825013 -0.16172253 0.19742845
000260 d5 2d eb 3d 48 ba dc 3d 34 e8 1a be 84 4c 42 be
       0.11483351 0.10777718 -0.15127641 -0.18974501
000270 e9 b9 e5 3b a4 e1 12 3d d3 72 bb bd 8f 28 f8 bd
       0.0070106876 0.03585972 -0.0915276 -0.12117111
000280 99 5c 9c bd 15 42 1d 3e 74 b0 93 be 87 80 e4 3c
       -0.07634849 0.1535724 -0.2884556 0.027893318
000290 f3 b5 73 3d 57 b6 a1 3c 6b 02 7d be e6 43 6c be
       0.059499692 0.019740267 -0.24707954 -0.23072776
0002a0 2e 43 ed 3d e5 48 80 3e 2f d2 be bd 31 5e d8 bd
       0.11585079 0.25055614 -0.09317433 -0.105648406
0002b0 74 90 4f 3e c8 88 22 be 13 9d f9 3d a7 1e 51 be
       0.20269948 -0.1587249 0.12188163 -0.20421849
0002c0 a8 de 53 3d a7 c2 56 be 91 96 83 3d e1 15 08 be
       0.051726013 -0.20972691 0.06425203 -0.13289596
0002d0 f5 4b 43 3e 98 62 b8 3d 86 f2 3a 3e 13 0f 07 be
       0.19071944 0.0900318 0.18256578 -0.13189344
0002e0 85 b4 3c be 23 a0 79 3d bd 64 5b 3e 8e 4b 00 be
       -0.18428238 0.060943734 0.21425147 -0.12528822
0002f0 61 54 ef 3d c4 96 93 bd bc 34 61 3e 19 c0 af 3c
       0.11686016 -0.07206491 0.21992773 0.021453904
000300 4e 8b be bd 75 b5 29 be 8b 0e 47 bd 2e be fb 3d
       -0.09303914 -0.16573127 -0.048597854 0.12292133
000310 37 b8 33 bd cb bf 19 3e 68 94 45 be 0e a7 bd bd
       -0.043876853 0.1501457 -0.19294894 -0.09260379
000320 53 13 a4 bc 79 54 e1 bc 35 63 fc bd 5f 19 5b be
       -0.020028746 -0.0275061 -0.1232361 -0.21396397
000330 57 86 87 3d bc 8c 11 3e 16 77 7a bd 08 1a 93 bd
       0.0661742 0.14213842 -0.061148725 -0.071826994
000340 53 75 ec 3d 8b 6f 5c be 72 e7 3a be 14 eb e6 bd
       0.11545815 -0.21526925 -0.18252352 -0.11275306
000350 df 36 8e bc 7f e2 ef bb 81 d0 74 bd 27 2d 0c be
       -0.017360149 -0.0073207016 -0.059769157 -0.13689099
000360 fe b7 73 be 92 01 8c be 9f 38 ef 3d 07 69 83 be
       -0.23800656 -0.27344948 0.116807215 -0.25666067
000370 77 0c 06 be 75 8e 3a be 4b 22 45 be a2 4a 0b 3e
       -0.13090692 -0.18218406 -0.19251363 0.13602689
000380 20 c1 a9 3c 93 da c1 bd 1a 02 08 be a1 15 31 be
       0.020721972 -0.09465518 -0.13282052 -0.17293407
000390 6a 34 c3 bd bc 99 07 3e 32 84 4c bd e8 75 09 bd
       -0.095314816 0.13242239 -0.04993076 -0.03355971
0003a0 44 12 e3 bd e8 9f a7 3d 1e 1a 88 bd 3c d9 2d 3e
       -0.11087468 0.081847966 -0.066456065 0.169774
0003b0 e7 c4 bc 3d 26 19 81 bd 4a 06 ac bd 1b 6f 8d 3c
       0.09217244 -0.06303625 -0.08399637 0.017264893
0003c0 03 e9 04 be e4 60 97 3d 52 8b 8a be 93 76 bb bd
       -0.12979512 0.07391527 -0.27059418 -0.091534756
0003d0 75 24 72 be 71 dd 15 3e 4b 5c 53 3e f6 0b 89 3c
       -0.2364672 0.14635254 0.20640676 0.016729336
0003e0 cf 92 46 be 32 55 d4 bd c8 36 21 bd 79 65 b6 3d
       -0.1939194 -0.10367812 -0.039358884 0.08906073
0003f0 0c 2b 2c be e9 e7 2e 3e a3 b2 e8 3d 75 6a 20 be
       -0.16813296 0.17080654 0.11362197 -0.1566561

fc2.weight f4 [128, 256]
000000 40 2b c6 3c 60 8a f4 3c 86 63 3f bd 8b 45 45 3d
       0.024190545 0.029851139 -0.046725772 0.048162024
000010 06 04 98 bd 82 c1 13 bd 0b 9f 90 3d 48 bd cc 3c
       -0.074226424 -0.036073215 0.07061585 0.0249926
000020 ba ac 65 bc 7e 50 8f 3d db 9d 9b bd 90 5a c6 3d
       -0.014018232 0.069977745 -0.07598468 0.09685242
000030 fa 2a 0c 3e 83 f9 99 bd 44 4d 0a 3d 7b 7f ef 3d
       0.1368827 -0.07518294 0.033765092 0.11694237
000040 bb 22 73 bd 39 90 75 be 38 f0 1a 3d 3f d2 4b bd
       -0.059359293 -0.23980798 0.037826747 -0.049761053
000050 07 da a9 3c ee 93 1d 3d 63 36 17 3c 77 a7 4e 3e
       0.020733846 0.038471155 0.009229275 0.2018107
000060 b5 31 a5 bc 36 67 86 ba b3 ab 80 bd af 56 0a 3e
       -0.020165304 -0.0010254148 -0.06282749 0.1350963
000070 e6 ba 80 bd 64 6a 80 3d 26 84 bc bd 99 bf 0e bc
       -0.06285648 0.062702924 -0.09204893 -0.008712673
000080 68 1a bd bd ca 6a 85 3d 09 8c 3d bc 54 d6 e6 3a
       -0.09233552 0.06514509 -0.0115690315 0.0017611482
000090 b7 d9 ae bd af 5a 74 3d 35 59 d1 3c 20 3e 0e 3e
       -0.085376196 0.059656795 0.025555233 0.13890886
0000a0 52 81 81 bd d9 00 85 3d 73 82 10 bd 33 1e 29 3d
       -0.06323494 0.06494302 -0.035280656 0.041288566
0000b0 83 f5 8d bd 3c ab 0a 3e 9d 90 bc bd d6 94 e1 3d
       -0.06931593 0.13541883 -0.0920727 0.11014716
0000c0 05 a7 35 3d 7b 3d be bc d1 96 06 3d 8f c5 93 3c
       0.044348735 -0.023222676 0.032858673 0.01803854
0000d0 4d ca 14 3e 94 03 ec 3e 47 17 bd 3d ee cf 9b 3b
       0.14530297 0.4609648 0.092329554 0.0047550118
0000e0 03 8d d1 3d e0 b0 c8 3d b8 47 88 3d 1f f7 ca bc
       0.10231974 0.09799361 0.06654304 -0.02477604
0000f0 0d 18 4a 3c 49 7e eb bd ca 8d d6 3d b6 96 90 3c
       0.012334836 -0.11498696 0.10476263 0.01764999
000100 89 ed cd bd 9f 17 59 3d 46 12 53 be de c0 71 bd
       -0.10055072 0.053001042 -0.2061244 -0.059021823
000110 5c 09 72 bd 67 6e 07 bd 88 07 c5 3d da 48 fd bd
       -0.059090957 -0.033064272 0.09620577 -0.12367411
000120 fe 6a 94 3d 84 96 9c 3d e5 6b 36 3d c1 58 6a bb
       0.0724697 0.07645896 0.04453649 -0.0035758468
000130 b7 60 10 be 8a 20 25 bd 30 3b d0 bc 48 bf 9e bb
       -0.14099394 -0.040314235 -0.025418848 -0.00484458
000140 df 48 53 3d 4a 58 5f 3d 85 9b f2 3d f2 83 e7 3d
       0.051583167 0.05452756 0.11846069 0.113044634
000150 79 af e3 3d 73 a9 a8 3c 38 47 9a bc c7 f7 59 bc
       0.11117453 0.020588612 -0.018832788 -0.013303704
000160 db ae 43 bd c2 9a 99 3d 0b c2 b2 bd f7 53 af 3d
       -0.047774177 0.07500221 -0.08728417 0.08560937
000170 29 1a 4f 3d 42 ef 6c 3e e8 55 8b bd 96 8d 8b 3d
       0.050562058 0.23138145 -0.06803495 0.06814115
000180 1f 01 bf 3d 70 05 8b 3d b0 35 00 be 3c 76 88 3d
       0.09326386 0.067881465 -0.1252048 0.066631764
000190 9e 30 9a 3d e0 10 b6 3d a3 db 2a 3d 28 5a 4c be
       0.07528804 0.088899374 0.04171337 -0.19956267
0001a0 42 ac ac bd 19 84 a6 bd e7 ea 68 bd 6e 7b 36 bd
       -0.08431293 -0.081306644 -0.056864645 -0.044551305
0001b0 00 76 80 3d d9 2c 96 bc cd b9 16 bd 61 a5 03 bd
       0.06272507 -0.018331932 -0.036798287 -0.03214014
0001c0 91 63 7d bd 19 35 ec bc b1 68 a0 3d 1f f6 48 bc
       -0.061862532 -0.028833913 0.07832468 -0.012265711
0001d0 a0 1d e7 3c 4d 2b 0d 3d 50 80 19 bc 8e 2c 45 be
       0.028212368 0.034465123 -0.009368971 -0.19255278
0001e0 3e 01 e5 bd b5 5e ec 3c 42 e4 69 bd b9 2a 1a be
       -0.111818776 0.028853754 -0.05710245 -0.1505536
0001f0 57 6b 25 3d f9 b2 72 bd 8a 1c 03 3e 58 81 9d bd
       0.04038557 -0.059252713 0.12803856 -0.07690686
000200 80 2a 93 3c c7 6f 1c 3e 41 6d 8a 3d c1 62 6b be
       0.017964602 0.15277015 0.0675912 -0.2298689
000210 bd 12 da 3d e2 22 da bc 2b 84 85 3c de f0 31 bb
       0.10648105 -0.026627962 0.016298374 -0.0027151625
000220 e1 09 95 bd c3 68 10 be 73 17 52 3d 69 b6 82 bc
       -0.07277275 -0.14102463 0.051291894 -0.01595612
000230 d9 b0 22 3e 94 0a 36 3d e7 ac ff bc 27 85 23 3d
       0.15887775 0.04444368 -0.031210376 0.039921906
000240 da 2f 52 3d e4 d7 cf 3d 1c 5a 96 3d b5 af 1a bb
       0.051315166 0.101486 0.07341406 -0.0023603265
000250 29 8e 93 3c fa 9f b1 3c 8e 91 9a bb 04 71 70 3d
       0.018012123 0.021682728 -0.0047170585 0.05870153
000260 dc fd d0 3c f4 5c 53 be 9f a7 8e 3c e6 a8 24 3d
       0.025511675 -0.20640928 0.017413912 0.040200137
000270 fd a2 af 3d ea 1f 4e 3b d5 02 eb 3c d0 32 dd 3d
       0.085760094 0.0031452128 0.028687874 0.10800707
000280 43 cc 9d 3c c3 08 91 3d a0 46 01 bc c9 5b 88 bd
       0.019262439 0.07081749 -0.0078903735 -0.06658132
000290 71 dd c1 3b e4 c4 a9 3d 4a da 93 3d b2 b1 49 bd
       0.0059162905 0.08289507 0.0721937 -0.04924173
0002a0 d9 3b d8 3c 2e ff 95 3d e9 44 f5 3c 70 38 98 be
       0.026395725 0.07324062 0.029940085 -0.29730558
0002b0 c4 7e 6f be de 5d 5b 3d d1 8d 0a be dd dc 87 3c
       -0.23388201 0.053556316 -0.13530661 0.016584808
0002c0 8c 9e 2e bd 8f 4f e4 3c 89 8a 9a bd 14 88 8e ba
       -0.04263167 0.027869968 -0.07545955 -0.0010874295
0002d0 57 79 6c bd f1 62 21 3c ee a4 cd bd 56 61 0b 3d
       -0.057732906 0.00985025 -0.100412235 0.034028374
0002e0 eb 8c a5 3c 59 f5 87 bd 5b 9f 13 bb bf 03 af bd
       0.020208796 -0.06638593 -0.0022525403 -0.085456364
0002f0 5b d9 b1 3c a2 97 85 3d f2 ac 26 be 5c 50 1f bd
       0.021710088 0.06523062 -0.16276911 -0.038894996
000300 37 4e 00 3e 6b 2c d2 bc 2b 6a 37 be 8f 0d 35 bd
       0.12529837 -0.025655946 -0.17911594 -0.044202384
000310 41 80 07 be 32 5f 90 bd 8a c2 a7 3d 22 8a 97 38
       -0.13232519 -0.07049407 0.08191402 7.22597e-05
000320 ff 2a 50 be 64 07 e9 3d 2e ce 9b bc 3e 1e d3 bc
       -0.20328902 0.11378363 -0.019019213 -0.025771257
000330 39 d7 61 3c ad 0e 02 3e 6a 50 cf 3c d2 f9 86 3d
       0.013784223 0.12700911 0.0253069 0.06590618
000340 3e 3f de 3c a1 04 56 bd 4c 3c 14 be d1 2a 2f bb
       0.027129766 -0.05225051 -0.14476126 -0.0026728401
000350 3c 3d d1 bb 84 1d 9b bc b4 b5 9a 3d 14 bd b3 bc
       -0.0063854735 -0.018934973 0.07554188 -0.021940745
000360 eb 9d 4d bd 16 48 13 3e 42 95 66 3d 77 78 3d bd
       -0.05019943 0.14382967 0.056294687 -0.046257462
000370 b1 f2 9d 3d d9 e9 70 3c 8a 12 b1 3d 7a 5d ed bd
       0.07712305 0.014704191 0.08646114 -0.11590095
000380 2b 72 34 3d 1e 2d db bd 34 cb 5c bd d7 89 03 be
       0.04405419 -0.10701965 -0.053904727 -0.1284555
000390 5c ff 8a bd 01 fd 85 3d d0 ea 81 3c d6 c3 4c bd
       -0.06786987 0.06542397 0.015859038 -0.04999145
0003a0 1c a8 c3 3d 4b 01 55 3c 18 40 60 bd 7b 9a dd 3d
       0.09553549 0.013000797 -0.054748625 0.108204804
0003b0 5f f3 b1 bd 1c 09 ec 3c e8 10 68 be 8d df 65 3d
       -0.086889975 0.028812937 -0.22662699 0.056121398
0003c0 f4 5a 32 bd e1 38 87 3d 5f 3c 48 3d bb 5f 8f 3d
       -0.04354377 0.06602646 0.0488857 0.07000681
0003d0 24 bd ff bd a2 8b 09 bd 1a 4a 33 bd f3 39 67 bd
       -0.124872476 -0.03358043 -0.04377184 -0.05645175
0003e0 91 8a 46 3d ac 82 a9 bd 26 9b de 3c 15 27 9a bb
       0.04847199 -0.08276877 0.02717359 -0.004704366
0003f0 4f f0 91 bc cd 8c ea bd 0b 63 32 3e e5 fc 37 bd
       -0.017814783 -0.11452637 0.17420594 -0.044918913

fc2.bias f4 [128]
000000 39 1a 10 3d 7b f8 c4 bd 1b 64 01 3d f6 12 25 bb
       0.035181258 -0.096177064 0.03158961 -0.0025188304
000010 8a e3 27 bd bc 7a ab bd 75 2a 85 3c 7d 81 87 bc
       -0.040988483 -0.08373019 0.016255597 -0.016541237
000020 21 98 b3 bd 7a 01 fa 3c 72 6d ca 3d 04 1a 1c bd
       -0.08769251 0.030518282 0.09884156 -0.038110748
000030 31 4d ec bc 2a fa 76 3d 8d f6 26 3d db 31 ca bc
       -0.028845401 0.06029717 0.040762473 -0.024681976
000040 e4 5a d0 bd 43 d4 e3 3a 99 67 02 bc d1 6d d3 bd
       -0.10173586 0.0017381985 -0.00795927 -0.1032368
000050 81 4d c1 3c ae b4 42 bd 6c 83 be 3c 5b 7e 07 3d
       0.023596527 -0.04753559 0.023256026 0.033079486
000060 ac 82 bd bd cf fe 06 bd ad 5f 0a 3d 6a 98 d8 3c
       -0.09253439 -0.03295785 0.03378265 0.026439864
000070 b7 c9 76 bc 6a 0b b7 3b 74 e0 47 bc 61 00 85 3c
       -0.015062741 0.0055860775 -0.01219951 0.016235532
000080 11 14 3c 3d 47 a8 75 bd 5f 88 85 3d 3b 21 81 3c
       0.045917574 -0.059974935 0.06520151 0.015762916
000090 4d f8 75 bb fa 7c 9d bb cf 90 d2 3c f1 28 83 bc
       -0.0037532032 -0.004806158 0.025703816 -0.016010733
0000a0 db 6b 1c 3c f5 47 f1 bc 2d 4a 25 bd 5a fd c4 3d
       0.009547199 -0.029453257 -0.040353943 0.096186355
0000b0 0d a0 13 bd 15 b5 1d 3d 49 f0 09 bd 2a e1 eb 3d
       -0.03604131 0.03850277 -0.03367642 0.11517556
0000c0 d3 4a 1b 3d a5 64 28 bc 4a 9b 85 bd 2e 38 0b bd
       0.037913155 -0.010277902 -0.0652376 -0.033989124
0000d0 36 12 96 bc 02 7b 7f bd 20 a3 35 bd b9 f5 95 3b
       -0.01831923 -0.06237317 -0.04434502 0.0045764116
0000e0 9e e7 d3 bc da e3 02 3d 3e 22 9d 3c 17 ca 55 bd
       -0.02586728 0.031955577 0.019181367 -0.05219468
0000f0 07 12 a1 3c 7e 33 81 bd a3 6e e2 bb fc 88 b5 3b
       0.019661916 -0.063086495 -0.0069101616 0.0055400115
000100 38 73 34 3b 40 7f af bd 73 16 58 bd 82 e3 50 bd
       0.0027534496 -0.08569193 -0.052755784 -0.05099822
000110 a9 e6 4a bd 7f ac 03 3c ec fe a9 bd b2 1f 8e bd
       -0.04953638 0.008036732 -0.083005756 -0.06939639
000120 f0 76 81 3d 7d df 02 bd 93 52 33 bd ee 3d 5f 3c
       0.06321514 -0.031951416 -0.04377992 0.013625605
000130 af f2 3b 3d 3c 2f 2e 3d 6b ca 4e 3c 46 34 8f 3d
       0.045885738 0.042525515 0.012621502 0.06992392
000140 ea b2 c1 bb a2 80 34 bc 59 2e 23 bd 6b 7b d8 bc
       -0.005911221 -0.011016997 -0.039839122 -0.026426038
000150 9b 52 7d bd b9 19 5f bc ca 32 33 bd 86 68 2d bd
       -0.061846357 -0.013616973 -0.043749608 -0.04233601
000160 ea 60 56 bd 35 97 29 bc f4 a0 e9 3c b6 d8 dd bb
       -0.05233852 -0.010350992 0.028519131 -0.0067702187
000170 41 4f 20 bd 9d 26 c6 bb 14 b0 8d bd ff 8d 9e bb
       -0.039138082 -0.0060470835 -0.0691835 -0.0048387046
000180 92 6f b9 bc 16 29 90 bb 2a 20 55 bd d7 73 59 bb
       -0.022636209 -0.004399429 -0.052032627 -0.0033180618
000190 4b 1e 52 3d ea 7a 11 3d b5 29 94 bc d8 16 00 bd
       0.05129842 0.03551761 -0.018086294 -0.031271785
0001a0 11 ad 84 bd ee 90 c5 3b 8b 93 6f bd 5a 83 17 bb
       -0.06478322 0.00602924 -0.058490317 -0.0023119063
0001b0 ff 53 47 3d 36 20 8e bd 24 79 0d bd c7 58 42 3d
       0.04866409 -0.069397375 -0.034539357 0.047447946
0001c0 64 2e ac 3c 8e 88 76 3d 91 a0 f6 3c f0 26 ef 3c
       0.021018215 0.060188822 0.03010586 0.029193372
0001d0 ce 02 29 3d 9f 7f 8a bd 1a 37 53 3b a0 47 1c bd
       0.04126244 -0.06762623 0.0032228888 -0.038154244
0001e0 4d 33 23 bd 26 e9 10 bb 85 ad 16 3d 48 59 32 bd
       -0.039843846 -0.0022111624 0.036786575 -0.043542176
0001f0 fb d0 ac bd 27 a8 87 3c 6f 7c 2b 3d dd c1 9d bd
       -0.08438297 0.016559673 0.041866716 -0.07702992

fc3.weight f4 [64, 128]
000000 1b f4 87 bd 8e f2 0d 3e e4 b2 80 3d 4b 36 19 bd
       -0.06638356 0.13862059 0.06284121 -0.037405293
000010 8c a5 db bd a6 e0 61 3d ac 84 c5 3c 48 6f 16 3c
       -0.10724935 0.055145882 0.024111114 0.009181805
000020 94 06 bc bd 8c e7 bf bd ee da 13 bc 63 81 62 bd
       -0.09180942 -0.09370336 -0.009024365 -0.055299174
000030 6b 32 67 3e d0 0e b2 3d e1 b0 80 be e4 75 74 3e
       0.22577827 0.086942315 -0.25134948 0.23873097
000040 db eb bf bd 88 bf 7e 3d 2c 2f 12 bc 44 41 8a bc
       -0.09371158 0.062194377 -0.008922379 -0.016876824
000050 bd 22 7e 3c b5 78 b1 3d ba 34 f8 bc fe 63 93 3d
       0.015511212 0.08665601 -0.03029858 0.07196806
000060 50 2e 36 bd d6 02 b4 bc 4d 9f f2 3c 63 bd 66 bc
       -0.04447776 -0.021974009 0.029616976 -0.014083239
000070 62 f9 6c 3d 40 54 62 3d 50 69 06 3c 5f 64 12 bd
       0.057855017 0.05525613 0.008203819 -0.035740253
000080 8c 0f 2f bd 56 2e e3 bd 14 1a 47 be 5b 7d c5 bd
       -0.042739436 -0.11092822 -0.19443542 -0.0964305
000090 a3 28 3f be 1c 6c 01 3e fb 46 0d bb e9 e1 18 be
       -0.18667845 0.12638897 -0.00215572 -0.14929928
0000a0 5b b6 e3 3d 60 bf 4a 3d 5d 8d 01 3e c6 00 ab bc
       0.11118766 0.049498916 0.12651582 -0.020874392
0000b0 f4 42 bd 3d b9 41 3f bd 1e ba f9 3d 50 db a3 bc
       0.09241286 -0.046693537 0.12193702 -0.020002037
0000c0 b7 8d a1 bc be 95 0a bd b2 33 b7 3d 7a da 82 3d
       -0.019720895 -0.03383421 0.08945407 0.06389327
0000d0 4c c9 62 3e ae 6b 1f ba bb 8a 17 3e 4a a6 9e be
       0.22147101 -0.0006081414 0.14799015 -0.30986243
0000e0 4c 6a 40 be b6 f3 b0 3d 21 04 f1 3d d2 ec 9b 3c
       -0.18790549 0.08640234 0.11768366 0.019033823
0000f0 bf 8a 1a 3e 88 61 69 3d ca 31 05 3d bc 35 13 3e
       0.1509199 0.05697778 0.032518186 0.14375967
000100 b9 70 b7 bd 0e 63 c5 bb 92 aa 2a 3e 0e 78 c6 3d
       -0.08957047 -0.006023771 0.1666663 0.09690867
000110 44 1b 03 bb 11 d9 ef 3a 3a 1f 0e be 1c f2 25 3e
       -0.0020005265 0.0018298944 -0.138791 0.16205639
000120 d9 2a c1 3d 0d 8f 1a 3e 5c 49 98 bd 0c bc fe 3d
       0.09432001 0.15093632 -0.07435867 0.12438211
000130 4f 61 fa 3c ed 84 2c be 63 51 95 3c 88 f4 d3 3d
       0.030563978 -0.16847582 0.018227285 0.10349375
000140 84 1f cb bd ac dc 08 3e 32 5f 54 3d 33 86 9b be
       -0.099181205 0.1336543 0.051848598 -0.30375823
000150 ba 48 89 bd 2d d1 07 bc 07 7a 49 bc b9 d3 e4 ba
       -0.067033246 -0.0082896175 -0.01229716 -0.0017458118
000160 9d b1 f0 bb b9 a4 5f be 61 8f 9f bd 5d 16 b6 3b
       -0.007345392 -0.2184018 -0.07791019 0.005556865
000170 4a ae 9a 3d 0e 70 1c 3e c0 2a 0c 3d ae 0a 8a 3d
       0.07552774 0.1527712 0.034220457 0.06740318
000180 a4 63 21 3d 9d 9b 82 3e 79 78 90 3c 33 89 1a 3e
       0.039401665 0.2550935 0.01763557 0.150914
000190 77 ca 8c bd 6f b3 6f bd ca 6d 67 3e a9 f6 5b 3e
       -0.068745546 -0.05852073 0.22600475 0.21480812
0001a0 63 28 8f 3d b9 87 0e 3e 5d d5 fb bd 0c 19 41 3e
       0.06990125 0.13918962 -0.12296555 0.18857211
0001b0 83 f1 5d 3d aa af 81 3c 0a c5 86 3d c5 79 87 3d
       0.0541854 0.015830833 0.06580551 0.066150226
0001c0 03 4e 8e bc 24 6d 83 3d c3 7d 2f 3c e9 6c 04 3e
       -0.017371183 0.06417301 0.010711136 0.12932171
0001d0 82 90 d6 3d 2a 79 cd 3d 43 25 01 3e c5 83 2a 3c
       0.104767814 0.10032876 0.1261187 0.010407393
0001e0 ac b5 53 3d 07 dd eb bd 8c 32 6a be 04 2b b1 bd
       0.051686928 -0.11516767 -0.22870845 -0.08650783
0001f0 85 82 a2 bc 4b 41 45 3c 7b 40 25 3e d8 5b 0b 3e
       -0.019837627 0.012039493 0.16137879 0.13609254
000200 5d a3 3d 3d 13 f9 d9 3d 9e 48 30 3d 4d 8a 2c 3e
       0.046298373 0.1064321 0.043038003 0.16849633
000210 ac 90 ac 3c 2e 43 3d bd 43 02 96 bc f4 e4 70 3b
       0.021065079 -0.046206646 -0.018311625 0.003675756
000220 78 96 ce bd 09 ab 48 3c ea 56 8b 3d 82 b9 f2 bc
       -0.100872934 0.012247809 0.06803687 -0.029629473
000230 bb 3f 6b 3e 94 f7 08 3e b0 aa 89 bc 90 dc 8b 3e
       0.2297353 0.13375694 -0.016805023 0.27316713
000240 dc 40 a2 3d 11 27 25 bd 13 95 4c 3d be 94 ac bc
       0.07922527 -0.04032046 0.049946856 -0.02106702
000250 cd c0 7b 3d 80 7d 0d 3e 7b 78 98 3c 9e 17 6c 3e
       0.061463166 0.13817406 0.018612137 0.23055884
000260 99 0f ae bd a2 02 31 bd 64 dd a3 3d cc 20 64 bb
       -0.08499069 -0.0432154 0.08001211 -0.0034809588
000270 29 d5 35 3d 3a 4d e9 3c 0a 1a b5 3d 2d 6f 21 3d
       0.04439274 0.028479207 0.08842857 0.039412666
000280 f7 24 9d 3b 2b 0a 01 bd 12 cb 76 bc 82 b8 0b 3e
       0.0047956663 -0.031503838 -0.015063064 0.13644603
000290 6c e1 7f be f9 fc fb 3d e7 b3 50 3e b7 73 94 bc
       -0.24988335 0.1230411 0.20381127 -0.018121583
0002a0 29 cc f3 bc 56 4c 0c 3e 32 52 6f bd b5 6f d4 bc
       -0.029760437 0.13700995 -0.058427997 -0.025932172
0002b0 dd 26 65 3d d1 da a3 bc 2b 4a fd 3d ba 63 2c 3d
       0.055945266 -0.0200018 0.12367662 0.042087294
0002c0 23 ee 16 3d 83 5a 1d bd 8a da ef bc 7e ee 9a bd
       0.0368482 -0.038416397 -0.029279012 -0.0756502
0002d0 18 99 be 3d d4 8e 05 3c e1 44 b4 3d 69 ca b5 bd
       0.09306544 0.008151729 0.088022 -0.08876497
0002e0 1d 52 b1 bc 8e f8 a4 bc 79 60 22 bd d7 27 33 3e
       -0.0216456 -0.020138051 -0.039642785 0.17495666
0002f0 38 33 c6 3b 02 ed 46 3c 50 ad 60 3e c5 76 69 3d
       0.006048586 0.012141468 0.21941113 0.056998033
000300 19 0b ad bc b8 4a 5f 3d 1d b5 4e 3e 2e 9c 74 bd
       -0.021123456 0.054514617 0.20186277 -0.059719257
000310 02 57 2a 3a 6e 24 84 3e af 02 e6 bd a5 d1 5a 3e
       0.00064979505 0.25809044 -0.112309806 0.21369036
000320 e4 cc 61 bc 61 9e 42 3d b7 80 73 bd 04 61 43 3d
       -0.01378176 0.047514323 -0.059448924 0.047699943
000330 09 3b 06 3e bb ee 07 bd 93 05 04 be e5 09 6f bd
       0.13108458 -0.033186655 -0.12892751 -0.058359046
000340 1b bb e9 3d b2 c8 86 3d 6d 7d 86 bc 6b 9a 49 be
       0.11412641 0.06581248 -0.01641723 -0.19687812
000350 71 f2 b4 3c e4 7d 1c 3d 3e 50 ab bd 1a 6b 72 3d
       0.022088261 0.038205996 -0.08364914 0.05918417
000360 3f 8f e6 bd 6a 6f 88 be a9 3d 85 bd 7c ae 86 3c
       -0.11257791 -0.26647502 -0.06505901 0.016440623
000370 f0 71 94 3d 3b f2 12 b9 54 a8 14 bd 40 a8 bb 3d
       0.07248294 -0.00014013883 -0.036293343 0.091629505
000380 32 45 07 3e 76 0a 8f 3e a8 03 c3 3d 15 ae a0 3d
       0.1320999 0.2793767 0.09522182 0.078457035
000390 a6 df 11 bc 88 91 c4 3c cf 05 8d 3e 69 64 62 3d
       -0.00890342 0.023995176 0.27543494 0.05527154
0003a0 f9 6c 5e 3d ea 6e 8b 3e a3 3e 0d 3d 89 7b 8b 3e
       0.054303143 0.27233058 0.034483563 0.27242687
0003b0 5d 74 42 bd 98 25 8b 3d a0 c2 b5 3d b0 20 56 3d
       -0.047474254 0.0679428 0.088750124 0.052277267
0003c0 c0 4a 9e 3b 70 28 76 3c 15 65 7f bc 28 2e 35 bd
       0.0048306882 0.0150242895 -0.015588065 -0.04423347
0003d0 fa 43 56 3e 39 cf 08 3e 0f 07 1c 3e bf 61 54 bd
       0.20924369 0.13360299 0.15237068 -0.05185103
0003e0 17 94 6b 3e 5b 90 4f be 7c c2 31 be 03 df 19 3d
       0.2300571 -0.20269911 -0.17359346 0.037566196
0003f0 66 22 47 3c 9c 11 fc 3d 22 cc d0 3b a6 0d 5d 3d
       0.012154197 0.12308046 0.006371991 0.053968094

fc3.bias f4 [64]
000000 61 2c 3a 3d 80 2f 7e 3b f5 0a a9 3d a0 79 60 bd
       0.04545248 0.0038785636 0.08254043 -0.05480349
000010 2c 2a 7a 3c 2d 15 ea 3c 74 cb 37 3d 1d 7c b3 bb
       0.015268844 0.02857455 0.044871762 -0.005477442
000020 ce 96 bd bc f3 df 06 3c 96 2b b2 3d de 94 1b bd
       -0.023143198 0.008232105 0.086997196 -0.037983768
000030 81 0a 9f bd ed ed dd 3d 10 03 d4 3d e3 bb 31 3d
       -0.07765675 0.10836396 0.103521466 0.043392073
000040 ec 3a ed 3c 19 81 ad 3d e5 c9 79 3d 4d 3c 31 3e
       0.02895876 0.08471889 0.060983557 0.17308159
000050 0d b2 67 bb a8 51 b5 3d 6d ac 33 3d 60 aa e0 3d
       -0.003535393 0.08853465 0.04386561 0.109699965
000060 f4 ae fa bd aa 04 28 3e be 47 32 3d af b7 35 3d
       -0.12240401 0.16408029 0.04352545 0.044364627
000070 4f 06 9a 3d c7 96 f8 bd a5 71 80 bd d6 d4 e7 3d
       0.075207345 -0.121381335 -0.06271676 0.11319892
000080 7f a8 63 bc 68 23 ca bc 11 9d 8c 3d cb 75 8c 3a
       -0.013895153 -0.024675086 0.068658955 0.0010716257
000090 e5 bf 1f 3e ee f6 a1 3c 25 b0 0a 3e 47 45 4c bc
       0.15600546 0.019771066 0.13543756 -0.012467689
0000a0 f1 31 32 bd b1 ee 0f 3c 52 b2 07 bd 23 e9 b7 3d
       -0.04350466 0.008784936 -0.033129044 0.08980014
0000b0 00 b3 a6 bb d7 62 9f bd 13 b0 09 3e 50 aa fc 3c
       -0.0050872564 -0.07782524 0.13446073 0.03084293
0000c0 ab b9 8d 3d ae cc 77 bd 7e aa 18 bd c1 9e 5c bd
       0.06920179 -0.060497932 -0.03727197 -0.053862337
0000d0 b6 34 f8 3c 8a 18 dd bc 16 cf 17 39 c3 0e 56 bb
       0.030298572 -0.02698924 0.00014477628 -0.0032662607
0000e0 a1 9d 3f 3d eb 83 60 bd 5a 3b c7 ba fb f8 0a 3e
       0.046781186 -0.054813307 -0.0015200183 0.13571541
0000f0 27 bb 04 3e f6 5d df 3b 8c 91 a8 3c 3b 4a 9d 3d
       0.12962018 0.006816621 0.020577215 0.07680174

fc4.weight f4 [2, 64]
000000 32 25 18 be 6b a1 c0 bc 5f e8 74 be 94 71 a0 3e
       -0.14857939 -0.02351447 -0.23916768 0.31336653
000010 fd 62 ec bd d9 fd 4a 3e af ee 1e 3e 85 2f 6d be
       -0.11542318 0.19823398 0.15520738 -0.23162659
000020 83 b1 73 be 7b dd d1 bc af 67 0d 3e 6b b7 13 be
       -0.23798184 -0.025618305 0.13809083 -0.14425437
000030 78 4a 05 3e 2b f1 44 3e 25 72 0d be cd bb f6 be
       0.13016689 0.19232623 -0.13813074 -0.48190156
000040 29 29 93 3d 04 a4 16 be ea 1f 47 3e 63 82 36 3e
       0.07185585 -0.14711004 0.19445768 0.17823176
000050 58 e9 5a be 7d c6 a3 3c 52 ad d9 bd dd 08 9f bd
       -0.21378076 0.019992108 -0.10628761 -0.077653624
000060 60 04 6e 3e 06 cf 7c be 2a ec a1 3d e8 bf 9c be
       0.23243856 -0.24688348 0.07906373 -0.30615163
000070 39 b4 75 3e 5c 7c 04 3f 65 ac 9e 3c 0a 34 57 be
       0.2399453 0.5175226 0.019369313 -0.21015945
000080 f0 b9 b7 3e 65 b6 e9 3d 74 2c 46 be df 50 7b 3e
       0.35884047 0.11411742 -0.19352895 0.24542569
000090 eb b8 45 be 1e 34 8e 3e 9e 18 9a 3e dc 13 2f 3d
       -0.19308822 0.27774137 0.30096906 0.04274355
0000a0 e3 58 dd 3c e7 81 f3 bd 76 2e 90 3e 36 6f 0e 3e
       0.027019924 -0.11890011 0.28160447 0.13909611
0000b0 58 1e 3e 3e 27 db 96 3e 43 4d 90 3e 09 f6 8a 3e
       0.18566263 0.29464075 0.28183946 0.27140835
0000c0 2a d3 32 be 47 fd 95 3d be f1 06 3d 04 6f 05 3e
       -0.17463365 0.073236994 0.032945387 0.1303063
0000d0 63 7d 92 3e bc 5e 1f 3d 68 a7 f7 bd e0 f7 49 bc
       0.28611287 0.038908705 -0.12092477 -0.012327164
0000e0 43 89 16 be 5c 32 8d 3e 32 cb a1 3d b6 58 53 be
       -0.14700799 0.27577484 0.079000846 -0.2063931
0000f0 5b 22 31 be b4 f6 79 be 96 e5 7a be bd a8 95 bd
       -0.17298262 -0.24410516 -0.24501643 -0.07307575
000100 5d 82 4b 3e cd 57 5f 3e 10 4d 58 bd 2e 4f 00 3e
       0.19873948 0.21810837 -0.052807868 0.12530205
000110 19 9c 47 be 11 a3 1e be 2f a5 86 be 5a e5 28 be
       -0.1949314 -0.15491892 -0.262979 -0.1649374
000120 77 4d 25 be b6 08 99 3d eb b5 b3 bd 7f 57 27 be
       -0.16142832 0.074723646 -0.087749325 -0.16341971
000130 c7 73 30 3e 4a 11 0a be c8 54 73 3e 8c 04 57 bd
       0.17231666 -0.13483158 0.2376281 -0.05249457
000140 9e 3d 46 3e 93 cb 82 3e 70 d7 bd bd f2 bf 92 be
       0.19359443 0.2554594 -0.09269607 -0.28662068
000150 ca 52 8b 3e b8 a2 ce be 82 77 78 3e 67 83 a9 be
       0.272116 -0.4035852 0.24264339 -0.33108065
000160 6e 60 eb bc e5 ce 00 be 0f c2 82 3e 1a e1 7c 3e
       -0.028732505 -0.12578924 0.2553868 0.24695244
000170 a4 61 10 be 00 37 3f 3d b7 b9 59 3e 01 75 cc bd
       -0.14099747 0.04668331 0.21262251 -0.09983254
000180 b6 4e cd 3d a3 c1 42 3e c0 37 5d 3e 62 98 39 be
       0.100247785 0.19019179 0.21603298 -0.18124536
000190 12 aa 27 be 7e c4 4d be 1d d0 8a be 4e 13 4d 3e
       -0.1637347 -0.20094487 -0.27111903 0.20026895
0001a0 70 5f 5b 3e 60 af 91 be 93 ce 47 3d 78 27 09 be
       0.21423125 -0.28454113 0.04878099 -0.13393962
0001b0 74 81 fa bd eb 15 0b bd 6a a4 74 be 26 91 cc bd
       -0.122317225 -0.03395645 -0.23890844 -0.09988622
0001c0 db da 0b be 62 a9 50 3e d1 f1 08 3f 36 40 19 3e
       -0.13657705 0.20377114 0.5349398 0.14965901
0001d0 6f 5b 69 be fc 2a 7e 3e 11 ba 9b 3e 5f 23 16 3e
       -0.22788785 0.24821085 0.30415395 0.1466193
0001e0 be ea 13 3e 94 2c 6e be 9d af 05 3e e1 15 44 be
       0.14445016 -0.23259193 0.13055272 -0.19148971
0001f0 b2 d8 0d be b2 da 1b 3e 38 72 c8 bd e5 a9 ce be
       -0.13852194 0.15220144 -0.097874105 -0.40363994

fc4.bias f4 [2]
000000 f3 3d 05 3c 1a 69 ca 3a
       0.008132446 0.00154427
