checkpoint_actor.pth (torch_old, 191942 bytes, 8 tensors)

fc1.weight f4 [256, 24]
000000 a8 8e 7a bd e3 b1 24 3e dc eb 1a be 93 ff 11 3c
       -0.061171204 0.16083483 -0.15129036 0.008911031
000010 c2 01 e8 3e ef 3d d9 3e a9 fa b1 3d 13 0f be 3e
       0.4531384 0.42430064 0.08690388 0.37120876
000020 a7 14 82 3e 2f ab d0 3e 58 cd a0 bd f2 ff 09 bd
       0.2540638 0.40755603 -0.07851666 -0.033691354
000030 a6 62 50 3e b7 0b 80 3e 2f 4f 91 3b 1d 7d 66 3e
       0.20350131 0.25008938 0.0044344882 0.22508664
000040 a6 10 14 3d dc b1 5c 3e f1 f9 42 be fb c8 1c be
       0.03614869 0.21552223 -0.19040658 -0.15311043
000050 8c bc f3 be a9 14 f2 3e d3 0b 9d 3d ef 6b 28 be
       -0.47604787 0.47281387 0.07668271 -0.16447423
000060 78 16 af bd aa 30 7d bd 95 a8 28 3e d6 c7 09 3e
       -0.085492074 -0.061813988 0.16470559 0.13455138
000070 cd 60 08 3f 0a 7b 56 3e 93 3e 3f be 23 84 2c 3c
       0.53272706 0.20945373 -0.18676214 0.010529551
000080 9c 85 37 3e a9 a3 e8 bd 5a 87 a7 bd 44 3a 51 be
       0.17922062 -0.11359341 -0.08180113 -0.20432383
000090 11 aa b3 3e ab f0 98 3e af 07 8c 3d c1 74 e6 bc
       0.35090688 0.29871115 0.06837403 -0.028131844
0000a0 dd 0e 95 3e 99 39 96 3c 3f 7f 59 3c 48 47 44 be
       0.29112902 0.018338012 0.013274967 -0.19167817
0000b0 87 9c 15 3f e6 64 e7 3e f8 77 11 3c 25 24 33 3d
       0.58441967 0.45194167 0.0088787 0.043735642
0000c0 fe 6b 2c 3e b0 d2 56 3f 01 4c 0f 3d 48 75 0c 3e
       0.16838071 0.83915234 0.034984592 0.13716614
0000d0 80 6d 6c be 88 4d 1f bf f0 b0 27 bc 93 8e a0 3d
       -0.23088646 -0.6222768 -0.010235056 0.07839694
0000e0 b1 8b 43 bd 2e c4 2a 3f 18 c5 84 3d 11 37 95 3d
       -0.047740642 0.66705596 0.06482905 0.07285894
0000f0 86 72 00 bc 64 75 b8 bf d2 e8 7f 3c 43 4f fd 3d
       -0.0078398045 -1.4410825 0.0156194735 0.123686336
000100 9b 01 b3 3d 8a 7e 2e 3f 6f 00 92 3d 94 a6 30 bb
       0.087405406 0.68161833 0.07128989 -0.0026954757
000110 89 5b cd bd 19 1d de bf 73 3c 02 bd b6 d0 1b be
       -0.100272246 -1.735263 -0.03179593 -0.15216336
000120 65 e6 7e bc f4 ff e4 3d b7 8c 66 bd a5 23 97 be
       -0.01555786 0.11181632 -0.05628654 -0.29519382
000130 0f f8 97 be 7a 40 4f be 17 a8 52 3e f5 ea 9f be
       -0.2968144 -0.2023944 0.20571934 -0.31233945
000140 3c 0f 62 3e 5e fd c4 3e 04 33 3e 3e 0d 2f 5d 3a
       0.22076124 0.38474554 0.18574148 0.0008437492
000150 73 31 a8 3c 2d 08 dd be cd e4 fc bd f0 f6 93 3e
       0.020531392 -0.431703 -0.12348328 0.28899336
000160 be 44 1e 3d ff de 63 3e 9e 7d c2 bd 28 72 a9 bd
       0.038639776 0.22253035 -0.09496616 -0.08273727
000170 62 68 c9 3d f7 53 8a bf b8 ee 0f bd 1e 79 49 3e
       0.098343626 -1.0806874 -0.03513977 0.19675109
000180 ae 0c 91 3e 06 ee 5a 3e 04 06 2b 3d f4 92 72 3e
       0.28329986 0.21379861 0.041753784 0.2368887
000190 df 54 dc be b6 de 03 3e 23 cb e3 3d 3c 2e 2d 3d
       -0.43033502 0.12877926 0.1112273 0.04228042
0001a0 35 17 46 3e 2f a8 51 bd 4b 09 70 3e 4b 73 cd bc
       0.1934479 -0.051185783 0.23441045 -0.02507939
0001b0 bb 18 a4 3d d6 aa 54 be fa 00 ff bd 21 35 6f 3d
       0.080125295 -0.20768294 -0.12451358 0.058400277
0001c0 30 c4 ed 3d 90 fb 3f bd 72 1a 3a 3d 10 b5 8b 3e
       0.116096854 -0.046870768 0.045435376 0.27286577
0001d0 a1 ce 05 3f 87 e5 d4 be 3f ed a6 3c 39 d3 5a 3e
       0.52268416 -0.41581365 0.0203768 0.21369638
0001e0 ae 0c de 3d 19 f9 2b be 3d 0e 6a bd df e5 a4 bd
       0.10842262 -0.16794242 -0.057142485 -0.08051657
0001f0 bf 98 2e be dd 66 7f bd e4 75 12 3e 56 dc 7f be
       -0.17050456 -0.062353957 0.14302784 -0.24986395
000200 78 ba fc 3c 90 ec db be 16 0a d1 3d 37 a3 3f 3d
       0.030850634 -0.4295392 0.10207002 0.046786513
000210 0e f9 f9 bd 15 e8 a9 3e 3d 94 01 be 79 5c 78 be
       -0.122057065 0.33184877 -0.12654205 -0.24254026
000220 fe 3e f7 bd df e0 03 bf d7 c2 4b 3d cc d8 60 bc
       -0.12072562 -0.51515 0.04974636 -0.013723563
000230 ad 6c b0 bd 10 ec 8c 3f 61 c1 31 3d 5a bc 3f 3d
       -0.08614478 1.100954 0.04339731 0.046810485
000240 57 90 97 3e a4 3c e1 be e3 41 13 3e 3b a5 ba 3d
       0.2960231 -0.43991578 0.14380603 0.091135465
000250 d0 64 d4 3d ce 9a 48 3f 3f c2 16 be 9b 4e f9 3d
       0.10370791 0.78361213 -0.14722537 0.12173196
000260 c7 4c a2 bc e5 d3 82 be 41 49 81 bd 64 70 f1 3d
       -0.019812 -0.25552288 -0.063128 0.11789015
000270 d8 4d 66 3e 4e fb 10 3f 8e 5c f4 3d 74 86 9a 3d
       0.22490633 0.5663346 0.11931716 0.07545176
000280 7f ae 0c 3e 74 0f 56 be 0d c1 2e be a1 de 80 bc
       0.1373844 -0.20904332 -0.1706583 -0.015731158
000290 09 88 fa 3e 71 78 a3 bd e5 e4 81 bd da cd 79 be
       0.48931912 -0.07981957 -0.06342486 -0.24394932
0002a0 e6 6c fa 3e df 28 86 be 88 98 58 3d db 69 36 3e
       0.48911208 -0.26203057 0.05287984 0.17813818
0002b0 a4 5b a6 be 56 6d a5 bd fb dd 8a bc 2a 49 af bc
       -0.3249179 -0.08077495 -0.016951552 -0.021397192
0002c0 a0 71 31 3e 17 8c d2 be cb 1f 2f 3e 6f 55 93 be
       0.17328501 -0.41122505 0.17101972 -0.28776118
0002d0 65 59 d3 be 08 51 3a 3e 47 ed ad bd 94 8e e3 3d
       -0.4127914 0.18194973 -0.08492523 0.11111179
0002e0 e1 46 95 3d c3 06 8d be 4b e7 6d 3e 25 71 19 3e
       0.0728891 -0.2754422 0.23232763 0.14984567
0002f0 6b 1d 95 be f5 52 19 3f 60 3c e3 bd d9 e8 bc 3c
       -0.29124007 0.5989221 -0.110955 0.02306025
000300 79 9a fb 3d 6b 91 5b bd 59 54 ec 3d db 81 92 3d
       0.12285323 -0.05360548 0.115395255 0.07153674
000310 7a 1e 2e be d4 3e ec bd db ce bf bc e2 d6 86 bd
       -0.17003813 -0.11535421 -0.023414066 -0.065839544
000320 9b 40 1f 3c 4b 8e 86 3d 91 ae a6 bc c0 21 9a be
       0.009719993 0.06570109 -0.020346912 -0.30103874
000330 c9 ef 46 3d ee 5e e4 be 2a 82 00 be 26 67 d2 be
       0.04856852 -0.44603676 -0.12549654 -0.4109432
000340 04 42 0e 3e 42 b6 1f be 55 9b 12 3d 5e 22 be be
       0.1389237 -0.1559687 0.035792667 -0.37135595
000350 f4 92 04 3f 23 82 01 be 5e 68 3f be e5 4d 05 bf
       0.5178673 -0.126473 -0.18692157 -0.5207198
000360 db c5 03 be 92 5e 96 be a0 e3 20 3d 1d 7f 0f 3e
       -0.12868445 -0.29369026 0.03927958 0.14013334
000370 6e 4d dc 3e 83 21 05 bf e4 dc eb bd 89 77 4e 3e
       0.43027824 -0.5200426 -0.11516741 0.20162787
000380 07 82 f8 3d b4 fe 37 be 26 de 59 bc ed 8e 57 be
       0.12134176 -0.17968255 -0.013297593 -0.21050616
000390 e9 79 d2 3e a6 c0 0a bf 10 89 89 3d 9a df f9 bd
       0.41108635 -0.5420021 0.06715596 -0.12200852
0003a0 66 6e 13 be a2 68 86 3d 02 c9 8a be bb d3 1c 3e
       -0.14397582 0.06562926 -0.27106482 0.15315144
0003b0 38 c5 45 be eb 40 45 3f 2b 60 48 3d 68 39 c3 3d
       -0.19313514 0.7705218 0.048919838 0.09532434
0003c0 49 c3 dd bd a3 31 04 bf c5 1e ac 3d 10 45 df bd
       -0.10828263 -0.5163824 0.08404306 -0.109018445
0003d0 9b 67 3e 3d 67 1e 8d 3e 4c fd 6b bd 36 67 0d be
       0.046485525 0.27562258 -0.05761461 -0.13808903
0003e0 38 15 07 bd 42 8d e6 be 43 38 16 3e 1b 29 88 3d
       -0.03297922 -0.45029646 0.146699 0.06648465
0003f0 e0 42 15 bf 16 a7 86 3e fc b7 fb bd a7 21 dc 3d
       -0.5830517 0.2629935 -0.122909516 0.10748606

fc1.bias f4 [256]
000000 13 96 b2 be 81 ca 4a 3d 4c d9 14 3d 2b 20 38 be
       -0.34880123 0.04950953 0.036340043 -0.17981021
000010 55 8a 08 be 77 31 0e be f7 aa 5b 3d 4a 25 44 bd
       -0.1333402 -0.13886057 0.05362984 -0.047887124
000020 67 21 99 be ff 87 18 3e bf 03 6d be 4c 38 a6 3d
       -0.29908296 0.14895628 -0.2314596 0.081162065
000030 81 84 66 3c 6b c6 a1 be d5 c8 84 bb 4a ec 2b be
       0.014069677 -0.31596693 -0.0040522614 -0.16789356
000040 3c aa 92 be a0 33 e0 bd c9 8d a3 be 1c b7 78 3d
       -0.28645504 -0.10947347 -0.3194411 0.0607215
000050 10 b1 d5 bd 27 df 9a bd c8 f5 dd 3c 4f 9e ad be
       -0.104341626 -0.07562094 0.027094737 -0.33909842
000060 8b b8 26 be e9 cb f9 bd d1 e8 b0 bd 5a 4d a9 be
       -0.16281335 -0.12197096 -0.08638156 -0.33066827
000070 b0 0e 91 3d d1 e6 90 bd 37 01 44 be 73 86 67 bd
       0.070828795 -0.07075275 -0.19141088 -0.056524705
000080 5e cf 8b be 22 7e c7 bd 15 ab 87 3d e4 18 06 3e
       -0.27306646 -0.09740855 0.06624428 0.13095433
000090 1f 1c 04 3e 3d eb 96 be 91 67 41 3e 99 ec 80 3e
       0.12901352 -0.29476348 0.18887164 0.2518051
0000a0 46 f3 94 be 9f 6b 4a be 67 c7 35 be bc 92 12 3e
       -0.29091853 -0.19767617 -0.17751847 0.14313787
0000b0 fd 32 40 be 1c 2d da bd 86 2c 16 bd 7a 32 86 be
       -0.1876945 -0.10653135 -0.036663555 -0.26210386
0000c0 68 39 dc bd bb 22 51 3c e9 a8 5d be d5 75 3f 3d
       -0.10753137 0.012764628 -0.21646465 0.046743233
0000d0 9f e7 87 be f4 f2 22 3d cd dd 07 be 09 63 55 bc
       -0.265439 0.03978248 -0.13268204 -0.0130241
0000e0 8d 39 83 be 47 1a 40 3c a9 a6 88 be 02 14 d2 be
       -0.25629845 0.011725015 -0.26689652 -0.4103089
0000f0 1e 9b 35 be df 44 b9 be 49 94 2e 3d 0d a1 b5 be
       -0.17734954 -0.36185357 0.042621884 -0.35474434
000100 04 39 99 bd dd 9d a9 3d 97 2c 40 3d f0 df a4 3d
       -0.07481578 0.08282063 0.046917524 0.08050525
000110 53 ee 0d be c0 b6 15 be a7 05 41 3c 45 d9 76 bd
       -0.13860445 -0.14620495 0.011781133 -0.060265798
000120 00 76 89 bd 7f d6 20 be 2b a7 15 be e5 a7 82 bd
       -0.0671196 -0.15706824 -0.14614551 -0.063796796
000130 45 42 e5 3d 96 59 88 3e cc 09 c0 be 7b aa 20 be
       0.111942805 0.2663085 -0.37507474 -0.15690033
000140 15 59 01 bd 9b 05 8a be 9d 3d 40 be dc 45 04 3e
       -0.031579096 -0.26957402 -0.18773504 0.12917274
000150 fd 48 2f be 60 38 2b be 8f 0a 7b be 7b ac 92 3d
       -0.17117687 -0.16720724 -0.24515747 0.07161804
000160 65 cb 3a bd a3 21 27 be c7 55 53 be 19 78 20 be
       -0.04560413 -0.16321425 -0.2063819 -0.15670814
000170 24 21 c2 3d e9 89 75 bd 3f f8 71 bc 1b 68 3d 3e
       0.09478977 -0.059945974 -0.014768659 0.18496744
000180 23 87 ce be f2 34 5c be 3e a8 92 be 09 9f 49 be
       -0.40337476 -0.21504572 -0.28643984 -0.19689573
000190 dd 24 56 be 13 e1 07 be 7f 3e 14 be 93 0e d6 be
       -0.209125 -0.13269453 -0.14476965 -0.41807994
0001a0 93 b9 87 bd 7c 03 31 3d 56 6a 03 bc fc 94 a9 3b
       -0.06627192 0.043216214 -0.008020958 0.005175231
0001b0 43 b3 f0 3d fa d8 dd 3d ba c0 1f be 39 b3 ab 3d
       0.117529415 0.108324006 -0.15600863 0.083837934
0001c0 12 30 a7 bd f7 d8 e4 3d 82 87 47 3d 3e 43 ac bd
       -0.081634656 0.11174195 0.048713215 -0.08411263
0001d0 74 ed 81 be f3 44 12 be 92 74 7f be 29 54 0d 3d
       -0.25376475 -0.14284115 -0.24946812 0.03450409
0001e0 e8 08 93 bd b2 2c 0e be 32 23 06 3e c2 0c aa be
       -0.07179433 -0.13884237 0.13099363 -0.33212858
0001f0 89 7e 6d be ff 6e dc bd 3e 2f 05 3e 30 03 bd 3c
       -0.231928 -0.10763358 0.13006303 0.023072809
000200 a6 04 1b 3e 2f ca 8b be d9 7e 2d be 3b 9f 4c 3e
       0.15138492 -0.2730269 -0.1694292 0.19982617
000210 fa 28 31 bc 7e eb 8f be 61 cc 9c 3d ae 39 92 bd
       -0.010812992 -0.28109354 0.0765617 -0.07139908
000220 9c e3 91 be de 60 b5 be ba ad b5 be be 90 84 be
       -0.28493965 -0.35425466 -0.35484105 -0.2589168
000230 ec 79 10 be c0 a7 ac be 6a 79 9d 3d 86 50 d9 bd
       -0.1410901 -0.33721733 0.076891735 -0.10611062
000240 58 be 08 bf 4f 85 b0 3d 1b fb ab bd 54 ac ea 3d
       -0.5341544 0.086191766 -0.08397504 0.1145865
000250 30 7f a2 be 9b 52 73 be b4 1f 22 be 6b d7 36 3e
       -0.3173766 -0.2376198 -0.15832406 0.17855613
000260 2a 85 ed bd c6 23 89 bd 65 ff f1 be 29 02 19 bc
       -0.11597665 -0.06696276 -0.47265163 -0.009338894
000270 ac 8c 00 bf 2e 5d 69 bd b2 40 ae 3c f5 1c 24 be
       -0.5021465 -0.05697363 0.021271084 -0.16026671
000280 24 cb 33 bd 04 7d c7 bd d4 fa aa be b6 3f 44 bd
       -0.043894902 -0.09740642 -0.33394492 -0.047912322
000290 2a d7 17 be a8 60 a5 be 3e 7d 73 be 11 d9 b9 bd
       -0.14828172 -0.32300305 -0.23778245 -0.09074605
0002a0 b1 ac c0 3c 1a 73 39 be b5 e6 93 be 4c 8c 39 be
       0.023519846 -0.18110314 -0.28886953 -0.18119925
0002b0 70 52 a2 bd e6 19 19 be a6 2b c8 be 4d 68 33 be
       -0.0792588 -0.14951286 -0.390958 -0.17520256
0002c0 37 34 dd 3d e7 aa 18 3e dd a1 2c bd 8f b0 00 be
       0.10800975 0.14908944 -0.042146552 -0.12567352
0002d0 86 a9 7d be 5a 2b b5 be ab 52 b6 be 37 31 2a be
       -0.247717 -0.35384637 -0.35609946 -0.16620336
0002e0 9f 13 c0 bd a8 93 c7 bb e9 18 90 bd e6 42 a9 be
       -0.093787424 -0.0060906 -0.07036001 -0.33058852
0002f0 2e dd 3e be 2f e5 45 be 9f 75 1c be b4 68 3b bc
       -0.18639061 -0.19325708 -0.15279244 -0.011438537
000300 f3 e1 22 3e 35 11 2c be f0 d5 b6 be 21 b9 55 be
       0.15906505 -0.16803439 -0.35710096 -0.20871402
000310 24 1b 0f be 02 71 1c bd 4c 88 06 be 68 73 d2 bd
       -0.13975197 -0.03819371 -0.1313793 -0.10275918
000320 0a 30 c1 bc 3a a0 45 3d f6 c1 ad be 2e 0d 9e be
       -0.023582477 0.048248507 -0.33937043 -0.3086943
000330 59 2e 76 be c2 ce 96 be 07 da 2e 3e 88 74 1c be
       -0.24041118 -0.2945462 0.17075358 -0.15278828
000340 8f 3a b8 be fd 6b c6 3d 36 21 7b be 07 78 f4 be
       -0.35982177 0.09688566 -0.24524388 -0.47747824
000350 01 ca 8d bd 0e 70 53 bd f1 87 c9 bd fe 8e 84 be
       -0.06923295 -0.051620536 -0.09840382 -0.25890344
000360 de 20 67 bc 2e 3a e5 bd 0f fc a2 be 35 53 2b be
       -0.014106957 -0.111927375 -0.3183293 -0.1673096
000370 b5 c4 0b be ee e1 28 be 62 db ae be 40 f7 02 bc
       -0.13649257 -0.16492435 -0.3415175 -0.007993519
000380 77 7a ef 3d 55 4d 51 3e 45 b5 c4 3d 33 c3 6e bd
       0.1169328 0.20439656 0.09604887 -0.058291625
000390 5d a9 3a be be 92 49 be 86 86 bd bd 4c 75 7b be
       -0.1822867 -0.19684884 -0.09254174 -0.24556464
0003a0 19 6b e3 3a b5 e9 a8 be 14 be f9 bd cc 52 f6 bd
       0.0017350643 -0.32990804 -0.12194458 -0.12027511
0003b0 86 3a 8a be 8d 53 7d be 5d 73 17 be 67 bb b6 3d
       -0.26997775 -0.24738903 -0.14790101 0.08922463
0003c0 f1 30 b2 be 74 52 b9 be a0 c5 4e 3d 5e 0b 9f be
       -0.34802964 -0.3619572 0.05048144 -0.3106336
0003d0 62 80 84 be dc 0f 14 be 16 dd a3 be 2a 3c 42 be
       -0.25879198 -0.14459175 -0.32004613 -0.18968263
0003e0 4e d5 b2 3d b8 28 8c bd 1a a6 ce 3b 75 73 cb bc
       0.08732091 -0.06843704 0.006306422 -0.024835328
0003f0 f9 d3 14 3e 01 a1 a0 bd 6a b1 d0 bd f5 ab 07 be
       0.14533986 -0.07843209 -0.10190089 -0.1324919

fc2.weight f4 [128, 256]
000000 a5 23 8d be 62 50 35 be 98 dc ef 3d e8 bb 34 3c
       -0.27566257 -0.17706445 0.11711997 0.0110311285
000010 a3 16 dc bd a7 4f e0 bd e4 d5 b7 bb fe e4 1f 3e
       -0.10746505 -0.109526925 -0.0056102145 0.15614697
000020 27 49 9b 3d ae 1e ed 3c 7b be a2 bd c2 41 fd 3d
       0.07582312 0.028945293 -0.079464875 0.12366058
000030 5d 7f 4c be ab a2 a5 bb bb 4a f0 bc ec 54 f4 be
       -0.1997046 -0.005054792 -0.02933251 -0.4772104
000040 c1 f9 48 3e 53 b7 f1 3d 7d aa 28 bd 43 c0 e1 be
       0.19626524 0.118025444 -0.041178215 -0.44091997
000050 44 b9 56 3c 75 91 38 3d bd ce 9b be 2c d8 5f 3e
       0.013105694 0.045060594 -0.30431166 0.21859807
000060 70 27 24 3e c1 88 03 3e 83 25 ef bd 62 a7 02 be
       0.16030669 0.12845136 -0.11677077 -0.12759164
000070 e9 4c e7 3d 1f 11 5d bc a0 c6 c0 bd c2 47 08 be
       0.11293966 -0.0134928515 -0.09412885 -0.13308623
000080 22 7d cb bc 8c 3d ee 3d 04 d3 50 be 1b 87 a5 3d
       -0.024839941 0.11632833 -0.20392996 0.0808241
000090 6c 74 05 be f8 7a b9 3d c2 94 d5 be a5 4c eb bd
       -0.13032693 0.090566576 -0.41715056 -0.11489228
0000a0 dd 5e 49 bd 59 5c 45 3d 70 d0 51 be 60 d8 7c 3d
       -0.049162734 0.048183773 -0.20489669 0.06172979
0000b0 5f 02 b5 bd 2f 30 85 be ae cf 62 be bd 6d aa 3c
       -0.08838343 -0.26013324 -0.22149536 0.02080428
0000c0 d0 39 b0 3d 44 71 fe bd e8 34 26 3c 61 84 70 be
       0.08604777 -0.124239475 0.01014445 -0.23487999
0000d0 38 8a be be 78 67 d5 bd 7b da e8 3d 22 d2 f5 3d
       -0.37214828 -0.10420126 0.11369797 0.1200297
0000e0 06 ad 7f be 5b 9f d6 3c 81 e9 3f bd f5 28 00 3d
       -0.24968347 0.026199033 -0.046853546 0.03128906
0000f0 4e f2 21 be 84 4e fb be 6b 0b f0 3d 05 2e 42 be
       -0.15815088 -0.4908334 0.11720928 -0.18962868
000100 20 2a 50 be fc 51 93 be 4c 49 2f bd f7 9a 80 bd
       -0.2032857 -0.28773487 -0.04279451 -0.06279557
000110 bc 39 6d 3c 98 55 42 be 22 5e 82 bb 1b ff 3b 3e
       0.014479097 -0.18977964 -0.0039785067 0.18359034
000120 8b 38 a1 bd 92 76 95 3c 6f 6e 37 3a eb 7b ca bd
       -0.07872113 0.018245015 0.0006997352 -0.09886917
000130 6b 1f 37 3e e1 05 6c bd 5f 62 a6 3d 44 73 f4 bd
       0.17883079 -0.057622794 0.081242315 -0.11936048
000140 50 0f cc 3d 9b f3 3c be 69 4e 56 be 85 83 ee 3d
       0.09963858 -0.18452303 -0.20928349 0.11646179
000150 1e 44 8b bd 03 45 03 be 3b f1 4b bd 97 8f 06 3a
       -0.06800102 -0.12819295 -0.049790602 0.0005133091
000160 8d 02 4f be b8 7a 91 3e ab 59 09 3e f8 f5 81 be
       -0.20215817 0.2841394 0.13413112 -0.25382972
000170 00 9a a0 be a6 73 62 3e 3b b8 a4 bd 34 a0 12 be
       -0.31367493 0.22114429 -0.08042952 -0.14318925
000180 54 76 e0 3d 2f 4d 0a 3b 17 1c e6 be d6 b0 f3 bd
       0.10960069 0.0021103134 -0.44943306 -0.11898963
000190 42 e5 dd 3a c8 06 95 bc f2 25 7b bd 20 e8 87 be
       0.0016929286 -0.01819171 -0.061315484 -0.26544285
0001a0 d2 ae 10 be 62 04 d5 3c ab 4b d9 be f3 76 55 bc
       -0.14129189 0.026003066 -0.42440543 -0.013028848
0001b0 05 a9 e5 3b cd 57 ce 3d aa a9 91 3d 31 99 e2 be
       0.007008674 0.100753404 0.07112439 -0.442575
0001c0 b0 91 dc bd 98 53 28 bd ca 8e e9 bd b1 fa 0e be
       -0.10769975 -0.041095346 -0.11404188 -0.13962819
0001d0 9d 4a ae be de 7b af 3b af bf cf bd 75 2b 93 3d
       -0.340413 0.0053553423 -0.101439826 0.07186023
0001e0 35 18 93 be 58 c7 33 bc 1c 3a c4 bc 89 ae 0b 3d
       -0.28729406 -0.01097282 -0.02395349 0.034101997
0001f0 fd 66 2f 3e a7 b7 8b bd 68 2f 82 3e 9a 8d 50 be
       0.1712913 -0.06822138 0.25426793 -0.20366517
000200 9b 5a 8f be 2b 95 7a be fe 86 0d bd 12 b9 63 bd
       -0.27998814 -0.24470966 -0.034552567 -0.05559642
000210 3d be 02 be 41 c5 cd 3d e3 5d c5 bd 3b 1b 24 3d
       -0.12767883 0.10047389 -0.09637048 0.04006503
000220 b1 17 9d bd 57 4d 55 3e 44 63 20 be 24 7f 11 3c
       -0.076705344 0.20830284 -0.15662867 0.00888041
000230 a4 f4 6e 3d db a4 80 be 9c 7c e8 bd 50 6a 4f be
       0.058338776 -0.25125775 -0.11351892 -0.20255399
000240 4b b5 de 3d 36 2d ad be 45 db ac bd 9c d1 ae 3e
       0.10874423 -0.33823556 -0.0844026 0.34144294
000250 45 4d 8f bd 2b c7 31 bc 94 0d 85 bd 74 b2 a6 bd
       -0.0699716 -0.010850708 -0.064967304 -0.08139506
000260 f4 21 a0 bb b1 63 69 3d 05 05 19 bd f6 24 9b bd
       -0.00488686 0.05697984 -0.037358303 -0.07575409
000270 5c f2 db 3d 91 e6 34 bd db 18 f3 3d 79 da 97 3d
       0.10739586 -0.044165198 0.11869975 0.07414717
000280 31 d0 fb bd 76 ff 60 bd 9b 0d 70 3e 6f ec 70 3e
       -0.12295569 -0.054931127 0.2344269 0.23527692
000290 05 1d 6e bc 55 0a 41 3e e7 ef 49 be ab 06 a4 3e
       -0.014533286 0.18851598 -0.19720422 0.32036337
0002a0 f5 ac bf 3d 7a 88 73 be 15 e8 37 be 24 37 68 3e
       0.09359161 -0.2378253 -0.17959626 0.22677284
0002b0 b2 2a de 3d 8a 8e f6 3d ad e6 02 3e 06 70 5e 3d
       0.10847987 0.12038906 0.12783308 0.054306053
0002c0 03 30 1b bc 71 69 00 3d 1f e0 2d be 63 b0 b1 bd
       -0.009471896 0.031350557 -0.16980027 -0.08676221
0002d0 61 6c 2c be 78 4b 2f bd 7a ac 4c be 99 00 ab bd
       -0.16838218 -0.042796582 -0.1998767 -0.08349723
0002e0 4e 08 87 3d 3a 1a 56 bd 52 2d 25 be 5e 75 69 be
       0.06593381 -0.052271105 -0.1613057 -0.22798678
0002f0 fd 70 39 be 18 54 87 3e 5b a7 3c be 77 3e 44 be
       -0.18109508 0.26431346 -0.18423216 -0.19164453
000300 ff ec 4d be 7c 35 01 3d bb 8b 54 3e 1f 2b 75 bb
       -0.20109938 0.031545147 0.20756428 -0.0037409735
000310 6a d8 52 bd 91 41 4f be 7b 37 5a 3d 9f a2 66 bd
       -0.05147592 -0.20239855 0.053275567 -0.05630743
000320 a6 de 0c 3e d5 7a c7 bd 4d 75 32 3d 96 04 8c be
       0.13756809 -0.09740225 0.043568898 -0.2734725
000330 1d 7b 11 3e 2c 56 63 3d 08 16 e8 bd 73 dc 32 3e
       0.1420712 0.0555021 -0.11332327 0.17466907
000340 08 23 2b 3d f3 2c 9f bd f3 c4 bf bc 86 a8 8d 3c
       0.041781455 -0.07772245 -0.023409342 0.017292272
000350 7c f1 97 3e ff ec 2d 3c 0e dd 17 bc e4 73 6f 3d
       0.29676425 0.010615586 -0.009269012 0.05846013
000360 f7 24 c1 bd de 1a 42 be d4 66 c8 3d d3 c7 73 3d
       -0.094308786 -0.18955562 0.09785238 0.05951674
000370 df 06 8e be ef 42 f3 bd 49 ab 4c be a5 e9 f3 3c
       -0.27739617 -0.11878001 -0.19987215 0.029774496
000380 c9 62 04 3e fb bb 75 bd 58 6b ed bd e6 2d 14 be
       0.12928309 -0.059993725 -0.1159274 -0.14470634
000390 0e 5e 80 be 8e 04 5b bb cc 96 7a 3e 0d b6 22 bd
       -0.25071758 -0.0033419463 0.24471587 -0.0397244
0003a0 7e 7f 0a 3d 6d d9 55 bc d8 9c e1 3d bf 52 19 be
       0.033812992 -0.013052327 0.11016244 -0.14972971
0003b0 cc 2e 9b be ac 44 72 bc bf 4a f1 bd 4d 25 53 be
       -0.3030914 -0.01478688 -0.11781835 -0.20619698
0003c0 4d 68 89 3e 00 22 27 3e 88 06 62 3d d8 63 d1 3d
       0.26837388 0.16321564 0.05518201 0.10224122
0003d0 0b 00 9c 3d c1 2f a0 bd 92 19 93 3d 7e 7b 09 be
       0.07617196 -0.07821608 0.071826115 -0.13426015
0003e0 7c 8e 1f 3d bb d3 c7 3d e4 c7 53 be cb d8 1c 3e
       0.038954243 0.09757181 -0.20681721 0.15317075
0003f0 1c 5a b2 3d d3 4c d4 bd 42 11 16 be a9 c4 04 3e
       0.08708593 -0.103662156 -0.14655021 0.12965645

fc2.bias f4 [128]
000000 6d c3 3a be a4 36 3c be 54 31 1a be a8 6a 50 be
       -0.18238612 -0.18380219 -0.1505788 -0.20353186
000010 75 59 ab 3d cd 4a b7 bd ec 88 59 3d 69 72 2b bc
       0.08366672 -0.08949814 0.053109095 -0.010464289
000020 ab 0f b5 3b 92 a5 46 bd 58 d5 ef bd 6b 58 1a be
       0.0055255494 -0.048497744 -0.11710614 -0.15072791
000030 f3 53 70 be 7e ff c1 bd 7d 75 95 bd b5 e5 9a 3c
       -0.23469524 -0.094725594 -0.072978 0.018908361
000040 0b f3 cc bd 6c ff aa bd 2c 6e 52 3c 07 37 b0 bd
       -0.10007294 -0.08349499 0.01284365 -0.08604246
000050 58 d1 e6 bc 95 7d 82 bd ee 45 82 3d 3d 37 67 be
       -0.028175995 -0.06371609 0.06360994 -0.22579665
000060 87 60 86 bd c7 38 3c be 17 1b 16 bd 57 04 ab 3d
       -0.0656138 -0.18381034 -0.03664693 0.08350437
000070 2b af 1b 3d d7 ab 39 be 63 37 f3 3d ab 5e 8a bd
       0.03800885 -0.18131958 0.118757986 -0.06756338
000080 c4 15 85 bd 3d 55 05 be 11 f9 4a be 0e 27 d4 bd
       -0.06498292 -0.13020797 -0.19821574 -0.103590116
000090 d8 a0 3c be a4 9f 0c bc 92 f1 3b bc 98 5e 68 3b
       -0.18420732 -0.008582983 -0.011471169 0.0035456773
0000a0 b4 6e 45 bd af 7a 11 be 38 1f 01 be 67 85 3d be
       -0.048201278 -0.14206956 -0.12609565 -0.1850792
0000b0 a6 22 39 be 71 d9 30 be 6d d5 66 3d ad cc 85 bc
       -0.18079624 -0.17270447 0.056355882 -0.016332949
0000c0 ac 99 8d bd 41 3f 88 3d 2c 35 5b bc ca b6 c7 3d
       -0.06914076 0.0665269 -0.013379376 0.09751661
0000d0 67 88 14 be 1e b0 8c bd 3d 27 83 bd 8d 46 02 be
       -0.14505158 -0.06869529 -0.064039685 -0.12722225
0000e0 94 ab b2 bb b1 c8 27 bd 8f 7b 38 bb 10 dc 92 3c
       -0.0054525826 -0.04096288 -0.0028149819 0.0179272
0000f0 ba 4d a0 bd 89 aa b3 bd 62 b3 83 bc 2d 2f 3f 3e
       -0.07827325 -0.087727614 -0.016076747 0.1867034
000100 7e 54 c2 3c 44 58 c9 3c 95 f6 42 be 6d 5c d6 bd
       0.02372193 0.024578221 -0.19039376 -0.104668476
000110 ce 52 0b 3e 97 08 70 bd cd db 8f bd b8 cf b2 3c
       0.13605806 -0.058601942 -0.070243455 0.021827564
000120 4c ff 20 bd e6 cb c1 3c a6 7f 3a bc e1 bf 47 3e
       -0.03930597 0.023656797 -0.011382973 0.1950679
000130 fd 0a 5d bd 71 5c 53 be 06 b0 31 be 2b 49 f4 bd
       -0.053965557 -0.20640732 -0.17352304 -0.11928018
000140 5a f7 41 be 4a ec d3 bd 5f e7 61 be 64 15 f4 3d
       -0.18942013 -0.10347803 -0.22060917 0.119181424
000150 0c 96 5f 3d 8a 09 d2 bd e9 c4 0b be a1 5d b6 3c
       0.054586455 -0.10255726 -0.13649334 0.022261443
000160 37 3f f3 3d 82 5a 1e be 02 b6 31 bd 6f c4 6f bc
       0.11877292 -0.15464213 -0.043386467 -0.014634236
000170 c0 00 ca bd 3b 58 98 bc 27 ac 2f bd bb 18 24 3d
       -0.09863424 -0.018596759 -0.042888787 0.040062647
000180 41 22 9f 3c 78 02 31 be 8b a1 87 bc ec 40 19 3e
       0.019425513 -0.17286098 -0.016556522 0.14966172
000190 27 67 09 be f8 49 14 bd ba 2b 05 3d d4 77 60 bd
       -0.13418256 -0.036203355 0.032512404 -0.054801777
0001a0 f8 c4 01 be 2f bf a1 bc 1d 50 e8 3d 3c bb 81 3d
       -0.12672794 -0.019744484 0.113434054 0.0633454
0001b0 83 a6 a4 be 05 f2 52 be 27 eb 52 bd 40 42 9a bd
       -0.32158288 -0.20600136 -0.05149379 -0.075321674
0001c0 95 65 f5 3d cf 09 f0 bd ce 09 af 3a 06 2e f7 bd
       0.11982266 -0.11720621 0.0013354362 -0.12069325
0001d0 a9 41 11 bd 81 62 12 be 01 70 88 3d 98 48 9f 3d
       -0.03546301 -0.14295389 0.06661988 0.07777518
0001e0 fd 2e 76 bd f1 1d b2 bc 06 02 d5 bd 7b 74 a0 3d
       -0.060103405 -0.021742793 -0.104007766 0.07834717
0001f0 75 2e 28 3d a9 86 0d be 90 92 5e 3d f0 ee bd bd
       0.04105993 -0.138209 0.05433899 -0.09274089

fc3.weight f4 [64, 128]
000000 09 b1 95 be a6 f8 9a 3e 8f 9c 9e bc 41 33 3b 3e
       -0.2923663 0.3026783 -0.019361762 0.1828127
000010 c8 7a fa be d8 27 9a bd c4 f9 1f 3d 30 e4 8f bd
       -0.489218 -0.07527131 0.039056554 -0.07025945
000020 c8 0c 02 be da 14 fb be 96 cb 35 bd 19 50 b2 bc
       -0.12700188 -0.49039346 -0.044383608 -0.02176671
000030 59 da 9f 3e cd 7d 5b 3b 6e f8 19 3e a9 74 d3 3c
       0.31221274 0.003349173 0.15036175 0.025812464
000040 74 0f ab 3e 2d 73 3a be 9b d9 1d 3e 21 fc 85 be
       0.33410227 -0.18207999 0.15415041 -0.26168922
000050 94 59 5d be 96 f0 42 bf 31 53 37 3e 6a cd a5 be
       -0.21616203 -0.76148355 0.17902829 -0.3238328
000060 1b c3 f4 bd b6 0a d2 be 92 fb fe 3d b5 a2 b0 bd
       -0.11951276 -0.41023797 0.12450327 -0.08624784
000070 16 77 a7 be 49 8f b1 be 6d c2 ac be 07 b8 23 bb
       -0.32708043 -0.3467963 -0.33742085 -0.0024981515
000080 a4 77 3f 3e 07 9a bf 3c 54 12 92 be 3f 6f 02 3f
       0.18697983 0.023388876 -0.28529608 0.50951
000090 c4 86 8d bc 0c e4 b0 3d 7c a2 2b be 92 83 48 3c
       -0.017276175 0.086372465 -0.16761202 0.0122384
0000a0 16 4d e1 bd 49 0e f9 3d d3 93 3d bd ca 02 8a 3e
       -0.11001031 0.12160928 -0.046283554 0.26955253
0000b0 6c 87 25 be 6c 12 18 3c 90 21 3a be e3 d9 77 be
       -0.1616494 0.009281736 -0.18176866 -0.24204211
0000c0 fe 1c 87 bc a6 95 d1 be e6 46 d7 3d 18 fb a6 be
       -0.016493317 -0.40934485 0.1051157 -0.32613444
0000d0 f6 b3 93 bd 99 6d 73 bd e4 86 32 bd d3 0a ee 3d
       -0.07212059 -0.059430692 -0.043585673 0.11623158
0000e0 8a d9 69 3d bf 6c f2 3d e5 8b 9b be 73 f5 c0 be
       0.057092227 0.11837148 -0.3038017 -0.37687263
0000f0 d7 0e 5c 3c d2 f2 1d bf 3d fd 0c be 12 2d 66 bd
       0.0134312725 -0.6169864 -0.13768478 -0.056195326
000100 9b a8 87 3d 9a b1 cf 3b e1 b9 90 3c a2 14 20 be
       0.06623956 0.0063383104 0.017666759 -0.15632871
000110 eb 34 9f bd 67 b7 4d be 27 55 22 be e0 2d c9 3d
       -0.07773765 -0.20089494 -0.15852796 0.09823203
000120 fe 42 cb 3c 38 70 5a 3d 5c a1 94 3e e9 50 a1 bd
       0.024812218 0.053329676 0.29029357 -0.078767605
000130 7c ca 01 bd 18 b2 58 be db 03 53 be 21 dc ee 3d
       -0.031687245 -0.21161687 -0.2060694 0.1166308
000140 8d b3 d6 bc b0 81 13 bd ef 39 96 3e 1e b6 6c be
       -0.026208663 -0.03601235 0.29341075 -0.23116347
000150 36 b1 3d 3e ac 87 db bd e4 0c 9c bd 75 0c 8a bc
       0.18524632 -0.10719237 -0.07619646 -0.016851643
000160 13 c3 6d be de e4 68 bd 04 fc 3d 3d 33 26 dd 3e
       -0.23218946 -0.05685889 0.04638292 0.43193206
000170 f6 27 b7 bd 9e af 9a 3c 85 8d 0e 3e 1a aa 61 3e
       -0.08943169 0.018882569 0.13921173 0.22037545
000180 ff d6 e6 3b 40 58 5d 3e 8a e8 f5 3e 1e 13 47 bc
       0.0070446725 0.21615696 0.48028976 -0.012150554
000190 dc f0 13 3f be 06 d8 bc 74 26 21 3e 1b 4e 56 3b
       0.577894 -0.026370402 0.15737325 0.0032700363
0001a0 40 62 3e be d1 69 f6 bd 7f fe 07 be c2 25 c0 3d
       -0.18592167 -0.12031902 -0.13280676 0.09382202
0001b0 44 73 af bd 95 09 31 be 73 50 d0 bd 83 87 98 be
       -0.08566907 -0.17288812 -0.101715945 -0.29790887
0001c0 1a 2b 05 bf f7 65 8c 3c 8d 63 31 be 32 3e a8 be
       -0.5201889 0.017138464 -0.17323132 -0.3285995
0001d0 01 cc 1d 3e 88 d7 8b be c8 28 34 bf 55 83 8a 3d
       0.15409853 -0.27312875 -0.7037473 0.06763331
0001e0 e3 59 9e 3e 77 a6 45 be 5f 3c dc 3d 3f cd d5 bd
       0.30927953 -0.19301783 0.10753702 -0.10439538
0001f0 19 1e 55 3d bd 76 79 be 63 d6 63 bd 74 37 8b bd
       0.052030656 -0.24361701 -0.055624377 -0.06797686
000200 80 41 8e 3d f8 63 a6 3e c8 99 b5 be d0 53 88 3e
       0.06946087 0.32498145 -0.35468888 0.26626444
000210 c7 26 8f be 98 bb 2e bc f1 60 0e bd 04 a5 72 3e
       -0.27959272 -0.010664843 -0.03476042 0.23695761
000220 5e 43 54 3e c6 2d 57 3e a4 22 e8 bd c2 51 a6 be
       0.20728824 0.21013555 -0.11334732 -0.3248425
000230 be c1 22 3f 32 e8 2c be 33 70 dc bb a4 d6 89 be
       0.6357688 -0.1688545 -0.0067272424 -0.2692157
000240 d7 02 d6 be c0 4c 38 3e b7 bf 6b be 67 a9 da be
       -0.41799042 0.17998028 -0.23022352 -0.4270737
000250 bc 56 f7 3d 15 86 75 be e4 67 8e 3c c9 32 bf be
       0.1207709 -0.2397693 0.017383523 -0.37343433
000260 11 bd ce 3d 03 c7 70 be f9 13 a0 3a 8e f4 aa bd
       0.10094655 -0.23513417 0.0012212984 -0.08347426
000270 56 e3 0a 3e 5a 8b 13 bd 27 2a 0a bf 7f 0b 77 bd
       0.13563284 -0.036021568 -0.5397057 -0.060313698
000280 c3 23 0b be ac a2 bf be 4c 4d 1a 3f 23 79 8e 3e
       -0.13587861 -0.37428796 0.60274196 0.27826795
000290 0a 6c 1a be ba a4 c0 3e f4 62 4b be b0 7a 16 be
       -0.15080276 0.37625676 -0.19861966 -0.14695239
0002a0 80 f4 75 3d b9 cd f6 3b 4d f2 a9 3e 2b 08 6c be
       0.060047626 0.0075318483 0.33192673 -0.23049991
0002b0 c9 0f 93 be 0c eb bb 3c 90 b6 f3 bd fe 93 62 3e
       -0.2872298 0.022939228 -0.119000554 0.22126767
0002c0 34 7d 0e 3e 34 ca c2 3b d4 c2 89 3e 1d a4 1d 3e
       0.13914949 0.0059445146 0.26906455 0.15394635
0002d0 3f 2e fd bd e7 c8 40 bd 6f e0 60 bd 93 fd cb 3d
       -0.12362336 -0.047066595 -0.054901537 0.09960475
0002e0 5d fc 6d 3e 99 fd d9 be 0f 06 e4 3c bd 35 d6 3d
       0.232408 -0.42576292 0.02783492 0.104594685
0002f0 66 09 20 3e be 02 46 3e 9e 23 92 3d ca 22 a9 3e
       0.15628585 0.19336984 0.071357 0.33034354
000300 7a 97 a8 bd a1 d9 1c 3d 86 56 79 bb 74 81 87 bc
       -0.08232017 0.038293485 -0.0038045957 -0.01654122
000310 24 49 0d 3e f7 b5 d2 3d 2e 6e 4a 3e f4 69 6c 3c
       0.13797432 0.10288613 0.19768593 0.014429558
000320 ae 28 72 bd fb 38 1c be 24 b5 ae 3d 7b eb 61 bd
       -0.059120826 -0.15256111 0.085306436 -0.055156212
000330 8c 8a 8e 3e 5f 11 f1 3d 84 84 02 3e eb 90 b1 3d
       0.27840078 0.117708914 0.12745863 0.08670219
000340 1f a9 d1 bc 28 4f c7 3e 5b d7 fa 3d 35 99 80 3e
       -0.025593339 0.3892758 0.12248107 0.25116888
000350 c5 27 49 bf ef 9a b6 3e 51 d4 b8 bd c0 80 00 be
       -0.7857631 0.3566508 -0.09024871 -0.12549114
000360 43 23 d0 be 4b 63 70 3e bd a7 88 bd 3f 5a 66 bc
       -0.40651903 0.23475377 -0.066726185 -0.014059602
000370 5f d8 35 bd 5e 91 cf 3d 31 52 14 bd e4 55 d9 3e
       -0.0443958 0.101351485 -0.036211196 0.42448342
000380 c5 28 02 bd 16 1e 15 bf 43 c5 fe be 13 78 09 bf
       -0.031777162 -0.5824903 -0.49759874 -0.53698844
000390 fd c3 1f 3c 44 cf fb bd c8 07 76 bf 84 d2 cb 3e
       0.009751317 -0.12295392 -0.96105623 0.39809048
0003a0 85 d4 a5 3e a1 00 b5 be 9f 96 89 be bd 2e 8e 3e
       0.32388702 -0.35352042 -0.26872727 0.27770033
0003b0 23 00 53 bd 67 46 a5 3e 98 ae ba be 6a bb 9c 3e
       -0.051513802 0.32280275 -0.3646133 0.30611736
0003c0 a1 26 cb bd ef 7b db 3e a8 37 d4 3d a2 2f 25 bd
       -0.09919477 0.4286799 0.10362178 -0.04032863
0003d0 13 36 76 be 52 7a 43 3d 2d 24 3c bc 79 80 7f 3d
       -0.24044065 0.047724076 -0.011483234 0.06237838
0003e0 f8 83 0a bf 71 ca 5a 3d e4 3c 8f bd 53 6a 02 3f
       -0.5410762 0.05341572 -0.06994036 0.5094349
0003f0 d2 73 d2 bc cd b2 ef 3d 46 5f e0 bc c9 91 9c 3e
       -0.025689993 0.117040254 -0.02738918 0.30579975

fc3.bias f4 [64]
000000 f9 04 cb bd 50 05 17 bd c0 ea 89 bd a1 0f 03 be
       -0.09913058 -0.0368703 -0.06734228 -0.1279893
000010 84 98 ed 3d 90 5f 1e bd e7 16 b0 3d dc ac 41 be
       0.11601356 -0.038665354 0.08598118 -0.18913597
000020 41 fd da bc 53 72 a2 3c 11 81 2d be 81 f7 b7 be
       -0.026732089 0.019829905 -0.16943766 -0.35931018
000030 d0 7f f8 bd a7 d3 08 3e 25 97 1c be e3 45 8c bc
       -0.12133753 0.13361989 -0.15292032 -0.017123168
000040 8e 26 9e bd 6c 4a f7 3d 4d 0a 9a bd ae 5b 68 b9
       -0.077221975 0.12074742 -0.07521496 -0.00022159397
000050 3b bb 4d be 26 80 a4 bd 7b 54 53 3e 83 11 34 bd
       -0.20090954 -0.08032255 0.20637695 -0.043962013
000060 3c 3b 87 be 54 3a 40 3d a5 e8 87 bd 89 1c 3b be
       -0.2641238 0.046930626 -0.0663617 -0.18272604
000070 ab 7b dc 3d 1a f3 77 3d 85 cb 9e bd cf e0 b9 3d
       0.10765775 0.060534574 -0.07753662 0.09076082
000080 2d 89 9f be 94 c1 10 be 2a 26 9a 3d 8a cc 08 bc
       -0.31159344 -0.14136344 0.075268105 -0.008349547
000090 65 41 fb bd 7f 3b 9f be 93 71 3e 3d 3f ee bc bd
       -0.122683324 -0.3110008 0.04649503 -0.09225129
0000a0 d1 6f 3d be fd 05 b2 bd 28 ab a4 be 0e 24 13 3d
       -0.18499686 -0.086925484 -0.32161832 0.035923056
0000b0 a8 4a cf bd ff 10 46 3d 1c d4 39 3e fd 9c 20 be
       -0.101216614 0.048356052 0.1814732 -0.15684886
0000c0 c0 02 a5 be bd cd db bd 75 a2 83 be b5 7f 23 be
       -0.3222866 -0.10732601 -0.25709882 -0.15966685
0000d0 f4 27 53 be 82 b2 b6 bd 96 c2 8b 3c c4 b3 41 be
       -0.2062071 -0.089207664 0.01706056 -0.18916231
0000e0 cb 73 73 bd 78 04 24 be 65 d6 70 bd cb 55 0f 3d
       -0.0594366 -0.1601733 -0.058798213 0.034993928
0000f0 b4 e2 b4 bd 41 55 03 3e b4 8c 70 3d a6 ee 4d bc
       -0.08832303 0.1282549 0.058727935 -0.012569105

fc4.weight f4 [2, 64]
000000 a7 f6 46 3f 83 44 72 3e bb 97 4d bf c7 d4 ce bd
       0.7772011 0.23658948 -0.8030965 -0.10099178
000010 08 e8 c1 be 43 c1 a7 be ae 31 13 3e 78 d5 b7 3e
       -0.37872338 -0.32764634 0.1437442 0.3590505
000020 ad 98 06 3f e0 31 21 b9 59 b7 b2 be 3c 5b c9 3e
       0.52576715 -0.00015372736 -0.34905508 0.3932742
000030 b4 a1 3d bf 94 df 3f 3e 33 f1 aa bd f8 bc 51 3e
       -0.74074864 0.18737632 -0.08346786 0.20482242
000040 61 b5 26 3e c1 dd eb bc e1 30 36 3e e5 b4 24 be
       0.16280128 -0.028792264 0.17792083 -0.16084631
000050 d7 8f 69 bf 93 06 02 bf 8a 32 52 3d b3 42 5d 3f
       -0.9123511 -0.5079128 0.05131773 0.864299
000060 f2 1c 64 3e ff 45 10 bf 2b af ae be 43 e5 00 bf
       0.22276667 -0.56356806 -0.34118018 -0.50349826
000070 5e 7f 44 bf 26 0d 14 be b4 e1 22 3f a7 45 76 3e
       -0.76756847 -0.1445814 0.63625646 0.24050008
000080 11 23 04 3f 82 a9 1f 3e 1f 8a ff 3e a2 f4 b8 3e
       0.5161601 0.15592006 0.49910066 0.3612414
000090 d0 b9 b4 bd ed 68 a4 be af 80 01 bf 40 c6 05 3f
       -0.088245034 -0.32111302 -0.5058698 0.5225563
0000a0 3e 28 08 bd 44 0d f6 bf 36 90 e5 be eb 92 ed 3c
       -0.033241503 -1.9222798 -0.44836587 0.02900072
0000b0 0f 81 3e be a1 d3 83 3e 2d a6 6b bd 11 2a e3 3e
       -0.1860392 0.25747398 -0.057531524 0.44368032
0000c0 8a fc 87 3c 50 16 38 3e 1d a0 0a 3e 6e 9e 09 be
       0.016599912 0.17977262 0.13537641 -0.13439342
0000d0 f7 66 8b bf 72 17 58 bd 2a 5f 3c 3e c6 a0 ad be
       -1.0890797 -0.052756734 0.18395677 -0.33911723
0000e0 2b 29 9e 3e 0f 21 6d bf d2 78 18 be db 7f 10 3e
       0.30890784 -0.9262857 -0.1488984 0.14111273
0000f0 ee 77 03 bf 4b 06 e2 3b d6 fe e1 3e e3 e5 86 3e
       -0.51354873 0.006897723 0.44139737 0.26347265
000100 0e e3 ad be 3e 78 fe 3e 3e 46 fc be c7 b6 14 bf
       -0.3396229 0.49701113 -0.4927234 -0.58091396
000110 72 13 1d bc d6 0d 2b bf 34 36 a5 3e b6 21 79 3f
       -0.009587156 -0.66817987 0.32267916 0.97317064
000120 3f ab 86 be 55 dc 64 bf 45 b6 ef 3e 06 82 28 bf
       -0.26302525 -0.893987 0.46818748 -0.658234
000130 86 28 9f bd 03 6c 02 bc f1 4f 28 3f 80 ee af 3e
       -0.07771401 -0.007960322 0.6574698 0.3436165
000140 cf 07 03 3f 0c d6 4f bf 3f 78 ad 3d 44 2f d2 3e
       0.5118379 -0.81185985 0.08470201 0.41051686
000150 2f f5 95 3d a1 0f 93 be 43 44 5a bf 91 a9 5d 3e
       0.07322156 -0.2872286 -0.8526041 0.21646716
000160 d3 2c 82 3e b9 5a 8b be fc a6 d2 be 71 31 14 bf
       0.25424823 -0.27217653 -0.41143024 -0.5788794
000170 46 b5 2f bd 64 d5 28 bf 5e 48 98 be 13 cc 3d be
       -0.042897485 -0.6595061 -0.29742712 -0.1853488
000180 3f c1 3d bd 35 da 22 3f 5c cd 61 be 1e 76 98 3e
       -0.046326872 0.6361421 -0.22050995 0.29777616
000190 67 9c 18 bf c1 fc 92 3e 66 43 a2 be ab 91 32 3e
       -0.5961365 0.2870846 -0.31692046 0.1743838
0001a0 61 11 d5 3e f8 c3 3a 3e 06 1a 90 bf 00 98 b5 bf
       0.41614822 0.18238819 -1.1257942 -1.4187012
0001b0 2b e9 02 be 24 f5 38 bf 51 03 2a bf 29 e9 f9 3d
       -0.12784259 -0.72249055 -0.6641131 0.12202675
0001c0 29 df 50 3f 88 e6 13 3e 15 e1 83 3f 44 90 00 3f
       0.81590515 0.1444341 1.0303065 0.5022013
0001d0 64 71 b6 be ca 1c 08 3f 32 de d5 be 1f 87 47 3f
       -0.35633385 0.5316893 -0.41771084 0.77940553
0001e0 40 60 a8 be c1 50 97 3c 85 39 ff 3d a0 4b 9b bf
       -0.32885933 0.018471124 0.12462143 -1.2132454
0001f0 0d 6e c0 be 74 65 32 bf 70 6a a4 3e 7b d3 54 3f
       -0.37583962 -0.69686055 0.32112455 0.83135194

fc4.bias f4 [2]
000000 c6 f7 0f 3e e2 e0 4c 3d
       0.14059362 0.050019152
