checkpoint_critic.pth (torch_old, 384713 bytes, 7 tensors)

fc1.weight f4 [256, 52]
000000 d3 a5 02 3d 79 d1 a1 bd 26 b6 a1 3d ce ed a4 bd
       0.031896424 -0.07901282 0.0789607 -0.0805317
000010 2b 55 aa be cb 95 9a 3e fd 62 be bc 44 69 26 bd
       -0.33268103 0.30192408 -0.02324056 -0.040627733
000020 22 a4 e0 3d f1 37 f1 3c 18 f3 92 3d c8 34 f6 3b
       0.10968806 0.02944562 0.07175273 0.0075136162
000030 c5 41 b3 bd 19 9d b3 3d 80 f4 89 bd 77 7e e3 bc
       -0.08752779 0.087701984 -0.06736088 -0.027770264
000040 50 bc c0 3e 3d fb 40 3e 6e c1 52 3d bd bf f9 3d
       0.3764367 0.1884584 0.051454 0.12194774
000050 48 3d 92 3e 1a 64 cc 3d 3d 9e c7 bd b5 f0 5b 3e
       0.2856238 0.0998003 -0.097469784 0.21478541
000060 77 9a b1 bc 47 e4 00 bf 18 7f 31 bd f2 15 8a 3d
       -0.0216801 -0.50348324 -0.043334097 0.06742467
000070 87 f7 ce 3e c9 84 80 3e 1c 2f 87 3c a0 61 00 3e
       0.40423223 0.25101307 0.016501956 0.12537241
000080 eb bf 68 3d 01 14 ea be 8f ca 11 bd e3 f3 9b 3d
       0.056823652 -0.45718387 -0.035593566 0.07614877
000090 84 57 19 3e b5 4d 48 3d b5 b9 20 bd 24 b4 1d 3e
       0.14974791 0.048902232 -0.039239604 0.1540075
0000a0 b5 2b 50 3e 29 bb e4 be 1a 50 a9 bd c4 d4 4b bd
       0.20329173 -0.44674042 -0.08267231 -0.049763456
0000b0 e5 93 0c be 37 d1 8c 3e 1a 3d 05 3d 76 60 cd bb
       -0.13728292 0.27503368 0.032528974 -0.0062676026
0000c0 8d 17 e0 3e 50 07 81 be 6b e5 0d bf 55 f4 25 bf
       0.43767968 -0.25200891 -0.5542819 -0.64825946
0000d0 a2 e3 85 bd 38 7b a0 3e 5c 60 97 3d 99 02 48 bd
       -0.06537558 0.31344008 0.07391426 -0.048830602
0000e0 13 0c d8 3d a4 a9 ec be 96 55 d8 bd 59 45 b6 3d
       0.10549178 -0.46223176 -0.10563199 0.08899946
0000f0 31 e8 07 3e ca db a8 3e 43 c6 be 3c 2c 76 34 ba
       0.13272168 0.32980186 0.023287898 -0.0006884064
000100 d7 77 0f bd 5b 14 96 3d a8 af 90 bd d0 a2 1d 3e
       -0.035026398 0.07328101 -0.07064754 0.1539414
000110 1d 4f 8a 3e 15 a5 13 3f 86 b0 8c 3d 79 60 04 bd
       0.27013484 0.5767377 0.06869607 -0.032318566
000120 1f 1a 1f be 21 94 4a 3f 8b f7 86 bd 11 da 43 3d
       -0.15537308 0.79132277 -0.06590184 0.047815386
000130 88 f9 80 3d 00 89 fc 3b 3e 7a 0f bc 26 43 de bd
       0.06297594 0.0077067614 -0.008757172 -0.10852651
000140 73 2a 92 bd 52 3b ae be e5 c3 c6 3b a9 13 73 3d
       -0.07137003 -0.34029633 0.006065833 0.05934492
000150 f9 63 a0 bd 05 a1 58 bd d6 aa fb bd ef 0c bf 3c
       -0.07831568 -0.052887935 -0.12288444 0.023321597
000160 2f d1 88 bd e2 7f 09 be 10 d6 0d 3e 9f e2 c3 bc
       -0.066805236 -0.1342769 0.1385119 -0.023911772
000170 5f 44 96 bd 60 30 04 3e 7a 19 59 3d 72 1e ad 3e
       -0.073372595 0.12909079 0.053002812 0.3381229
000180 71 ad 2f 3e 59 c9 52 3f ca 1f ce bc 3e d3 72 3e
       0.17156006 0.8233848 -0.025161643 0.23713395
000190 f3 1a 6c 3f 54 6a 88 3e b4 ff c5 be f6 fd 93 be
       0.9222862 0.26643622 -0.38671649 -0.28904694
0001a0 0b 06 40 3e 84 12 8d 3b 8a 09 62 3d ea a6 92 bd
       0.18752305 0.0043051858 0.05518488 -0.071607426
0001b0 3b ba 04 3e fe 54 2d bd 6e 02 6d bd 0c 9c 36 be
       0.12961666 -0.042317383 -0.057863645 -0.17832965
0001c0 48 37 3a 3e 23 12 0e be 71 6a 03 3e 31 62 3d 3e
       0.1818515 -0.13874106 0.12833573 0.18494488
0001d0 8b ac 3e 3d d2 75 06 bd 92 d5 53 bd 02 22 92 3e
       0.04655127 -0.032827206 -0.05171735 0.2854157
0001e0 f4 02 89 3e 2c 85 a9 bd 15 af ed bd 71 43 ab 3d
       0.26760066 -0.08277354 -0.1160566 0.08362473
0001f0 12 f5 b0 be de 7e e7 be e1 0d e4 bd 15 e0 1f 3e
       -0.34561974 -0.4521398 -0.1113546 0.15612824
000200 e2 f4 29 be 68 68 51 3e 06 ad 78 bd b7 23 81 3d
       -0.16597322 0.20449984 -0.060711883 0.0630564
000210 9e ed 91 be 0a be 8b bd 36 51 5e 3d 45 31 8b 3e
       -0.285016 -0.068233564 0.054276668 0.27186027
000220 40 e2 02 3d 67 5a 60 3d e9 37 ef 3c 39 87 63 3e
       0.03195405 0.054773714 0.029201465 0.22219552
000230 af ca 0d bd 76 0a 07 be 02 df d0 bd a7 81 54 3e
       -0.034617122 -0.13187584 -0.10198785 0.20752583
000240 c0 09 fe bd 9f e3 32 3e 63 e4 51 bd 30 ab 70 bd
       -0.124042034 0.17469643 -0.051243197 -0.058757007
000250 92 a8 7e 3e 1e b3 81 be 82 03 d1 3d 0c 0c 5d be
       0.24868992 -0.25331968 0.10205747 -0.21586627
000260 b5 52 e4 be f9 60 18 3f 95 08 bc 3d 2c ec 63 3e
       -0.4459435 0.5952297 0.091813244 0.22258061
000270 14 d4 0d 3e 13 dd 8a 3d f7 52 20 3b e6 d7 d4 bd
       0.13850433 0.06780448 0.0024463513 -0.10392742
000280 88 5d 8b 3e f6 eb ee bd 6d a2 4e bd 4e fe 12 3d
       0.27219796 -0.116661 -0.05044787 0.035887055
000290 17 2b d8 bc 01 e1 e1 bd c3 07 14 3c 8a 93 1d 3d
       -0.026387734 -0.11029244 0.009035054 0.038470782
0002a0 05 cb 8b 3e 0f c6 ad be 91 03 09 bd db 9c 05 3d
       0.2730333 -0.3394017 -0.033450667 0.032620292
0002b0 29 bd 06 3e 27 83 a4 3d c4 ee d6 bd e7 66 81 bd
       0.13158096 0.08032828 -0.1049476 -0.06318455
0002c0 37 55 c5 3e eb 64 97 be 1a c2 c2 3d 96 eb 75 bd
       0.38541576 -0.29569182 0.09509678 -0.060039125
0002d0 4e 28 a9 3e ba 85 79 3e 23 f0 cf 3d f3 28 1b bd
       0.33038563 0.24367419 0.10153224 -0.03788085
0002e0 98 7e 86 be f2 6f ec bd 7d 04 e0 bd 91 77 ab 3b
       -0.26268458 -0.115447894 -0.10938356 0.0052327593
0002f0 8e 54 bf 3e 6b 44 a9 3c 0e ae 24 3e bf da 8d 3d
       0.37369198 0.020662507 0.16082022 0.06926488
000300 fb 64 a3 be 21 df a8 be 75 01 95 bd f3 14 da 3d
       -0.3191298 -0.32982734 -0.072756685 0.10648527
000310 82 63 0e 3f 87 ce 52 3e 93 f8 75 3d 91 c4 db bd
       0.55620587 0.20586596 0.060051512 -0.107308514
000320 2b 9a f0 be b7 fc 64 be 87 7e 33 3d f3 2e 68 be
       -0.4699262 -0.22362028 0.043821838 -0.2267416
000330 a2 02 5f bd ed 37 94 bd e2 8d 6d bf 9e 92 bd 3d
       -0.05444587 -0.072372295 -0.9279462 0.09256481
000340 4b ed 5c bc 7d 39 92 be 80 43 c8 bc 7a 30 c1 bd
       -0.013484309 -0.28559485 -0.024446249 -0.09433074
000350 de a9 b2 be 3f 8f ec be 84 4d 14 3d 4f 2b 24 bd
       -0.34895223 -0.46203038 0.036206737 -0.040080365
000360 79 84 30 be ad 55 75 3d de 1c 47 bd 2f 07 52 bd
       -0.17238034 0.05989616 -0.048611514 -0.051276382
000370 83 98 8e bd b1 ce bd be 3a a8 2d 3d 2e 0d e2 bd
       -0.06962683 -0.37071756 0.04239676 -0.1103767
000380 1a 1e 99 bc d2 bd 84 bc 6f aa 73 bd d4 c2 1c 3d
       -0.018691111 -0.016203795 -0.05948871 0.03827174
000390 92 f3 87 3e ed 01 ba bd 17 47 eb 3c 3e bd 50 3e
       0.26553017 -0.090823986 0.028720422 0.2038469
0003a0 b7 6d 1d be f9 1e 57 3e 4b a9 c6 bd eb ef 90 3d
       -0.15373884 0.21007909 -0.09700259 0.07077011
0003b0 e6 7e 8f 3e 28 69 7c be 2b cf cc 3d a2 d6 a6 3c
       0.28026503 -0.24649489 0.10000452 0.020366017
0003c0 3c 95 12 be 35 36 82 3e 90 77 e5 3b 2e d4 83 bd
       -0.14314741 0.25431982 0.0070027784 -0.064369544
0003d0 61 6a 28 3e 6b 24 dd be d9 b1 b0 3a db 86 6d 3d
       0.1644683 -0.43191847 0.0013480737 0.057989936
0003e0 41 ba 43 bd 40 1b b2 3e 7a fe 8c bc ca d0 91 bd
       -0.047785047 0.34786415 -0.017211188 -0.071199015
0003f0 c2 e5 2c be b4 aa 60 bd ea 3d 0a bb ac 59 88 3d
       -0.1688452 -0.054850295 -0.0021094033 0.066577286

fc1.bias f4 [256]
000000 07 c5 4a be 19 2e 05 be 4b 34 cd bc 38 df 4f bd
       -0.19801722 -0.13005866 -0.02504935 -0.050749987
000010 b7 85 53 be 1a 2d 20 be e0 75 a0 3d e6 57 27 3e
       -0.20656477 -0.15642205 0.07834983 0.16342124
000020 33 54 cf 3d 19 c5 5d 3e c2 e4 20 bc 9c 20 73 be
       0.101234816 0.21657218 -0.009820165 -0.23742908
000030 10 87 ba 3c 44 a8 47 3e eb ce 62 be ab ef 5e be
       0.022769481 0.19497782 -0.22149245 -0.21771114
000040 a4 a0 7c 3d 3b 51 ab 3d b5 ce 12 3d ab a8 14 be
       0.061676636 0.08365103 0.035841662 -0.14517467
000050 89 f0 63 be b2 62 27 3c 9c 8f 86 bd ae ff 89 bd
       -0.22259726 0.010216402 -0.0657036 -0.0673822
000060 e0 3e 6e bd 38 42 42 be 1d 9b 3b bc 12 6a 27 be
       -0.05816543 -0.18970573 -0.011450556 -0.16349056
000070 22 9b 77 be 8f a7 99 bd 32 d1 12 bd 7a f0 06 bd
       -0.24180272 -0.075026624 -0.035844035 -0.03294418
000080 0a 96 c3 bd c5 20 99 3c 10 f3 03 bc 7f ab 13 3e
       -0.09550102 0.018692384 -0.008053556 0.1442089
000090 c6 8d 90 bc 82 68 17 3e 28 5a af 3d e2 37 c1 3c
       -0.017645728 0.1478596 0.08562118 0.023586217
0000a0 1c 5f db bd a3 07 01 be 40 58 59 bd d8 eb af bd
       -0.107115 -0.1260057 -0.053062677 -0.085899055
0000b0 2d 6a 2b bd df a2 30 3e e1 87 a2 3d 44 9f 04 be
       -0.041849304 0.1724963 0.07936073 -0.1295138
0000c0 df 79 27 3d ac 0c 09 bd 4f 2a c1 3c ee fd 10 3b
       0.04088771 -0.03345935 0.023579745 0.002212401
0000d0 aa fe 21 bc 25 21 fe 3d cd d7 24 be 6e bd 76 be
       -0.009887377 0.124086656 -0.16097946 -0.24095699
0000e0 cd 16 5c bd f9 e6 da 3c e7 04 05 be 7b 3d cb bd
       -0.053732682 0.026721464 -0.12990151 -0.09923836
0000f0 e4 74 14 3c 95 10 94 be bc da c0 bd 8a 66 a3 bc
       0.009061072 -0.289189 -0.0941672 -0.019946355
000100 6e 60 16 3d d7 cd 06 bd 8a 03 ef bd 3d 59 10 be
       0.036713056 -0.032911148 -0.11670597 -0.14096542
000110 57 2b 8d 3d b3 62 d5 bc aa df 5c 3b 2a ea 13 be
       0.06893032 -0.02604804 0.003370265 -0.14444795
000120 2c fd bf bd 12 a1 8e 3d 32 6c 8c be 65 6f 20 3e
       -0.093744606 0.069643155 -0.27426296 0.15667494
000130 5e ba ff bd d7 5d d0 3d 32 7f fa bc 22 29 82 3d
       -0.124867186 0.101741485 -0.03057823 0.06355502
000140 19 12 ac be 93 ad 40 be d3 dc 96 be 42 d6 26 be
       -0.33607557 -0.18816213 -0.2946535 -0.1629267
000150 5b a4 0b be 27 4d 82 be b5 0d 59 3d 1c 32 48 be
       -0.13636915 -0.25449488 0.052991588 -0.19550365
000160 22 41 56 be f3 bf 0b be 3c 3d 35 3d 79 99 3c 3d
       -0.20923284 -0.13647442 0.04424785 0.0460448
000170 d2 f4 a9 3d 82 0b 48 3d c4 4d 43 be c0 d4 f8 bd
       0.08298649 0.0488391 -0.19072634 -0.12149954
000180 c2 e4 1d be 6f ed 0f 3d 5a 9e f6 3d f5 1b a4 bc
       -0.15419295 0.035138544 0.12041922 -0.020032862
000190 ac 8f ed bd 93 5c 49 be a2 41 19 be 88 1c 8b be
       -0.11599669 -0.1966422 -0.14966443 -0.27170205
0001a0 08 c4 d8 bc 62 73 7c be f1 55 06 be 5d a3 46 be
       -0.026460662 -0.2465339 -0.13118722 -0.19398256
0001b0 4b 94 72 3d f8 12 d4 bd fd 70 f8 bc 61 a1 b1 bb
       0.059223454 -0.103551805 -0.030327315 -0.005420849
0001c0 8b bf df bd 7f 56 56 be c2 1a d0 bc 9f fb ed bd
       -0.10925206 -0.20931433 -0.025403384 -0.116202585
0001d0 6e f5 82 bb b5 92 89 be c6 ab 84 3d 6b a4 3f be
       -0.0039965427 -0.2686974 0.06478076 -0.18715064
0001e0 80 9b 88 3e 63 55 49 be d4 3c 3a 3d 76 a1 41 be
       0.26681137 -0.19661479 0.045468166 -0.18909249
0001f0 45 15 d8 bd 24 1a 78 3e 93 c5 11 be 2d 23 8b bd
       -0.10550932 0.24228722 -0.14235525 -0.067938186
000200 50 4a 22 3e aa e0 55 be 3b a2 e8 be 95 32 dc 3d
       0.1584866 -0.20886484 -0.45436272 0.10751835
000210 f9 b7 78 3d 1b 3a 8e 3d 97 cb 9d bd 31 8d 8e bc
       0.060722325 0.069446765 -0.07704847 -0.01740131
000220 d4 a9 35 3b d3 5e ed bd ae 2a 0e be 8a 36 48 3e
       0.0027719634 -0.11590352 -0.13883469 0.19552055
000230 2c e3 90 3c 90 7c e2 3d ac ce 4b be 60 fd a8 bd
       0.017686449 0.11058915 -0.19903058 -0.082514524
000240 53 03 90 3d ed 32 44 be bf 96 06 3e 51 a7 c2 bd
       0.07031884 -0.19160052 0.13143443 -0.09504569
000250 71 6a 3f 3d 94 04 0b bc c0 ac 62 be 97 c8 f9 bd
       0.04673237 -0.008484978 -0.22136211 -0.121964626
000260 c6 db f3 bd d5 49 fd bd 35 85 3d 3e ac a3 10 3e
       -0.11907153 -0.12367598 0.18507846 0.14124936
000270 61 fd 5c bd b0 c7 91 be 6d c1 25 be d0 0f b3 be
       -0.05395258 -0.28472662 -0.16187067 -0.34973
000280 7b 10 13 3e 13 ed f0 3c 0f b5 5f be 27 e8 da bd
       0.14361756 0.02940992 -0.21846412 -0.10688811
000290 ef 4a 03 3e 86 14 37 be 3c a5 57 be ec 76 5b be
       0.12821554 -0.17878923 -0.21059126 -0.21432084
0002a0 10 02 5d 3e e3 da 69 bd 8e 73 52 be 12 6d 1a 3e
       0.21582818 -0.057093512 -0.20551893 0.1508067
0002b0 f9 ff 59 3a 4b 62 77 be 37 d1 20 3e eb 7e 13 be
       0.0008316036 -0.2415859 0.15704809 -0.14403884
0002c0 ce f8 b1 bd 21 4f 26 3e 34 83 e6 bd 32 75 6f be
       -0.08690034 0.16241123 -0.11255494 -0.2338455
0002d0 62 2d 4a 38 9c 99 4c be ca 1a 44 be c9 43 49 3e
       4.820282e-05 -0.19980472 -0.19150844 0.19654764
0002e0 6a bf eb 3d ed 26 8e be 6d e3 84 bd c4 54 8e be
       0.11511119 -0.27764073 -0.064886905 -0.27799046
0002f0 cd 21 a1 bd 78 77 a0 be 4a 9b 37 be 82 5c 80 3d
       -0.07867775 -0.31341147 -0.17930332 0.062676445
000300 9a fa 18 be 63 48 ae bc a7 01 37 be 6a f0 5a bd
       -0.14939347 -0.021274751 -0.17871724 -0.053451933
000310 52 83 81 3d c4 b0 b3 3d b7 44 02 be ad 9b e4 bd
       0.063238755 0.0877395 -0.12721525 -0.11162505
000320 95 27 ce bd d2 50 27 be 00 27 cc bb 75 51 2e 3c
       -0.100661434 -0.16339424 -0.006230235 0.010639538
000330 59 af 0a be 2f 6e a3 bd 7f dd 54 bc 67 3a 96 3b
       -0.13543452 -0.0798 -0.012992262 0.004584599
000340 85 e3 39 3e 00 02 fd 3d 62 e4 38 3b a3 1d f3 3d
       0.18153198 0.12353897 0.0028212299 0.11870887
000350 6c 87 db bd 0e d2 4b be 59 b9 da bd 24 fa 5f be
       -0.10719189 -0.19904348 -0.106798835 -0.21872765
000360 14 4b 6b bb 70 e5 86 be 08 6b 9f 3d 22 5d de bc
       -0.0035902904 -0.26346922 0.077840865 -0.027144019
000370 9a 5c 65 bd 31 89 46 bd a2 93 4d bd 83 64 4b be
       -0.055996515 -0.04847068 -0.05018962 -0.19862561
000380 f3 37 6c be be 5c 88 bd 51 79 2e be 96 4d 4b 3c
       -0.23068218 -0.06658314 -0.17038466 0.012408635
000390 c7 23 cf 3c 61 ec 88 3d dc e1 ae bd b2 af 17 be
       0.025285615 0.06685711 -0.08539173 -0.14813116
0003a0 a1 a8 e8 bc 20 e3 d8 3d 7c 1d 00 3e d0 4b 90 3d
       -0.028400721 0.10590196 0.12511247 0.0704571
0003b0 15 a7 82 3c 76 2d 1a 3d d8 e9 94 3d 9c 45 13 bd
       0.015948812 0.03764101 0.07271165 -0.035955057
0003c0 0c 67 9f 3c cb 82 c9 3c f4 5a 71 3d 13 15 7d be
       0.019458316 0.0245985 0.05892463 -0.2471507
0003d0 b3 60 81 bb d9 c1 cf 3c 27 be da bd 67 79 c4 b9
       -0.003948295 0.025360988 -0.106808 -0.00037474485
0003e0 06 64 f4 bb bd b4 b0 3c ad d0 63 bd c2 84 14 bd
       -0.007458213 0.021570558 -0.05561893 -0.03625942
0003f0 47 61 80 3c 9a 41 16 3e fe 55 29 3d af 65 cd bd
       0.015671385 0.14673463 0.041341774 -0.1002916

fc2.weight f4 [256, 256]
000000 d7 10 0f be bf 01 35 bd 10 fb 51 bd 34 81 bf 3d
       -0.13971268 -0.04419112 -0.051264822 0.093508154
000010 85 0c 40 bc 78 ab 40 3d aa 09 60 bd e4 a9 04 bf
       -0.011721735 0.047038525 -0.054696716 -0.5182173
000020 30 58 27 bd 6f 04 79 be 22 59 e0 bc cb 02 9b 3c
       -0.040855587 -0.24318098 -0.027386252 0.01892223
000030 61 78 bf ba e4 3e 85 3d 23 11 36 be a3 5d 95 3d
       -0.0014608019 0.06506136 -0.17779975 0.072932504
000040 0d af b2 be 4b 96 6a 3e 3b 6a 7b bc 0d bc b3 bb
       -0.34899178 0.22908895 -0.015345152 -0.005485064
000050 b0 6a 19 bd c4 ff 4d 3d 1c 27 36 3d e8 44 12 3d
       -0.03745526 0.050292745 0.04447089 0.035710245
000060 80 32 01 be 9e 7b f5 3c 8f 86 18 3e d9 90 70 3e
       -0.1261692 0.029966172 0.1489508 0.23492755
000070 c2 1a 07 bf 75 c1 01 3d 68 f4 41 3e 47 40 75 3d
       -0.52775204 0.031678636 0.1894089 0.059875753
000080 71 6f 89 bc 78 d0 92 bd 8c cd 96 bc 94 69 46 3d
       -0.016776772 -0.071686685 -0.01840856 0.04844053
000090 6e 61 c1 bd 9a 22 83 be ee 00 ad 3d 41 eb 9d bb
       -0.09442411 -0.25612336 0.08447443 -0.004819304
0000a0 8a 11 02 be 85 a8 11 3d 22 fb 9a 3d af ac 86 bd
       -0.12702003 0.035561103 0.07567431 -0.065759055
0000b0 c1 e7 b4 bd 18 05 06 bf 28 cc 6e 3d 75 75 9b 3d
       -0.08833266 -0.5235152 0.058300167 0.075907625
0000c0 e3 61 0f 3e ab ee 2c be 63 d4 30 3e 58 82 97 be
       0.14002185 -0.1688792 0.17268519 -0.29591632
0000d0 4e 27 d3 bd fb cd 15 be 7b 42 9f 3d 7f 1f e7 bd
       -0.10310231 -0.14629357 0.07776352 -0.11285304
0000e0 12 87 b2 3d 35 03 9a be 16 a9 0f 3e 14 c5 81 bd
       0.08717169 -0.30080572 0.14029345 -0.06336418
0000f0 51 05 ba 3d 99 5f 29 3e 9e e9 84 be 0d c9 82 bd
       0.09083045 0.16540374 -0.25959486 -0.06386004
000100 c0 33 2d be ef 4f 0f 3e 20 97 15 bd 11 1c 93 bd
       -0.16914272 0.13995336 -0.036521077 -0.071830876
000110 51 e3 4f 3e 2e 51 75 3c b7 d1 ab bd c1 54 04 bd
       0.20301558 0.014972968 -0.08389609 -0.03230739
000120 47 de 1d bd 3d 69 1c be ac 4b 38 3c 90 8d 23 bd
       -0.03854206 -0.1527452 0.01124851 -0.039929926
000130 72 ac c8 b9 56 a6 0a bf 70 57 01 be e0 66 37 be
       -0.00038275454 -0.5416006 -0.12631011 -0.17910337
000140 35 6a 96 be fd 26 89 3d 5d 09 be bc 02 2d f4 bd
       -0.29377905 0.066968895 -0.023197824 -0.11922647
000150 e2 30 c5 3c 90 a2 90 bd ca af 67 3d f2 7c 53 bd
       0.02407116 -0.07062256 0.05656413 -0.05163283
000160 fb 25 13 3d 1e 3f c8 3d 1c 77 bc 3c 68 d1 b5 bd
       0.035924893 0.09777664 0.023006015 -0.08877832
000170 64 44 12 be 65 4a 9e be 33 db e7 3d 01 d7 c8 be
       -0.14283901 -0.30916134 0.11321106 -0.39226535
000180 64 19 ce bc 6b e4 14 be 23 fc 5d bc a1 0c de bd
       -0.025158592 -0.1454026 -0.013548884 -0.108422525
000190 a0 3e 14 be c9 98 8d be 0c fd 43 be 68 a5 84 bd
       -0.14477015 -0.27655628 -0.19139498 -0.06476861
0001a0 43 82 df bd d4 58 7e bd 50 07 bb 3d 59 03 00 3e
       -0.10913517 -0.06209643 0.09132254 0.12501277
0001b0 4f 93 2a bc c0 1d 58 be 1f 53 07 be c1 44 05 3d
       -0.010411098 -0.21105099 -0.13215302 0.032536272
0001c0 a9 f8 b9 bd 52 f9 4e 3d f0 90 92 bd d3 25 7a 3d
       -0.09080631 0.05053074 -0.07156551 0.06107123
0001d0 89 3f 72 3d 15 25 6b be ff 06 41 be 81 58 f0 bd
       0.059142623 -0.22963364 -0.18850325 -0.11735631
0001e0 52 40 8d 3d 1c dc 94 be 9a da 08 bd 8f f4 80 3b
       0.06897034 -0.2907418 -0.0334116 0.0039354037
0001f0 0f b4 07 3d 05 7e f2 bd 8c bd 81 3d c5 d0 a3 3d
       0.0331307 -0.118404426 0.06334981 0.07998804
000200 96 5f 64 3c 2e e5 24 3e 74 bc 9c bd 4d 1a ef be
       0.013938805 0.1610305 -0.07653132 -0.46699753
000210 93 67 c6 3d ec e8 54 3b e7 84 81 be ef f9 63 3c
       0.09687724 0.0032487465 -0.2529671 0.013914569
000220 59 e3 ae bd cb 11 8f be d8 2c 48 be 92 58 2b bd
       -0.08539457 -0.27943262 -0.19548357 -0.041832514
000230 da 1f 28 3d 18 89 eb bd 94 da 97 bd 3c 20 14 3e
       0.041046 -0.11500758 -0.07414737 0.14465421
000240 90 0b 31 3d 8a 2f 89 bd 45 1d 89 3e 77 c2 9c bd
       0.043223917 -0.066985205 0.26780143 -0.07654279
000250 ef 85 0b 3c f8 40 5e 3e f3 2c cb be 56 91 ee bc
       0.008515819 0.21704471 -0.3968273 -0.029122036
000260 03 6c 3d bd fb 16 21 be 37 2b 9f 3c 2a b4 6b bd
       -0.046245586 -0.15731423 0.019429786 -0.057544865
000270 43 29 1a bf 7a e5 46 be 43 5d e7 bc cb d5 13 bd
       -0.6021921 -0.19423476 -0.028242713 -0.03609256
000280 bd 14 03 be 3f c6 91 be 38 39 58 bd 1f 86 06 bd
       -0.1280088 -0.28471562 -0.052788943 -0.03284275
000290 5b 2c fa bd aa 53 0b be 78 1b 6c be 10 47 df be
       -0.122154914 -0.13606134 -0.23057353 -0.43608904
0002a0 5b ca 23 3d bc 29 ff 3d a4 b7 a5 bd a4 8c b0 be
       0.039987903 0.12459132 -0.08091667 -0.344823
0002b0 7f dc 63 bd c5 9e af bd 4d 82 05 3d c5 2f 2c be
       -0.055630203 -0.08575205 0.032594968 -0.16815098
0002c0 5b 87 02 be 87 f9 3d be e1 1f ec 3d 13 2a 23 3e
       -0.12746947 -0.18552218 0.11529518 0.15934019
0002d0 9c 92 f5 bd fe 38 0d be 4c d9 d0 be 20 2e 9a bc
       -0.11990854 -0.13791272 -0.40790784 -0.018820822
0002e0 37 fa 1d be 7f 37 3f 3d f8 68 87 3d 5e 0f 03 bd
       -0.1542748 0.046683785 0.06611818 -0.031997077
0002f0 85 7d ea bd 53 23 8e bd f5 ef 31 be bc 70 d9 be
       -0.11449722 -0.06940331 -0.17376693 -0.42468822
000300 ac f1 05 3e cf 9f a4 3c a7 40 63 3d 86 2c 07 3e
       0.13080472 0.020095734 0.05548158 0.13200578
000310 c3 b4 ca 3d 07 f0 2f 3e fd 09 ca 3d 84 f9 5e bd
       0.09897759 0.17181407 0.09865186 -0.054437175
000320 29 0c 7a bd 61 ca 95 bd 8d 23 0d be 3c 04 31 be
       -0.061046753 -0.07313991 -0.13783093 -0.17286772
000330 50 88 da 3d c1 64 2d be e4 aa 8c be a1 f2 1f be
       0.10670531 -0.16932966 -0.2747413 -0.156199
000340 3e f8 da bc f1 cc 87 bd 45 0e 6d 3e f1 c2 c5 be
       -0.0267297 -0.06630886 0.23149975 -0.3862529
000350 5a d5 80 3b 00 24 07 bd f9 0b f4 bd 16 02 71 be
       0.0039316835 -0.032993317 -0.11916346 -0.23535952
000360 20 f5 aa 3a 9a 3b 08 3d ba 6e 5a bd 6a a6 a2 3c
       0.0013043024 0.033259965 -0.053328253 0.019854743
000370 ef 22 c0 bd e5 21 59 3c 18 57 31 be 46 a2 57 bb
       -0.09381663 0.01325271 -0.1731838 -0.003290312
000380 dc a7 52 3e 72 64 37 be 1f fe 95 bd b0 f5 9a 3d
       0.20571846 -0.1790941 -0.073238604 0.075663924
000390 3b 9a 2c 3c 60 48 e5 3c 66 f6 9c be 1d 45 9b bd
       0.010534818 0.027988613 -0.30656737 -0.07581542
0003a0 67 5c fc 3d ef 2e d9 bd ea d0 25 be 35 11 d8 bd
       0.12322312 -0.10604655 -0.16192976 -0.10550157
0003b0 2a 7b 1c be 89 a0 39 be de 53 d4 be ad 2d d4 3d
       -0.15281358 -0.18127646 -0.41470236 0.103602745
0003c0 73 4d bb bd 01 2f 09 be 8f bd 6c 3d b1 7d 3e be
       -0.09145632 -0.13396837 0.057797965 -0.18602635
0003d0 72 1a 1f be 27 28 21 be 1b c7 96 bd 36 1a 1c be
       -0.15537432 -0.15737973 -0.07362195 -0.15244374
0003e0 eb 4c 05 bc 38 5f e3 bd 50 68 b0 bd 5e 4c d0 bc
       -0.008136014 -0.11102146 -0.08613646 -0.02542704
0003f0 e4 cb 0e 3d 60 68 8b be e3 d2 04 3e cf d0 9a 3b
       0.034862414 -0.2722807 0.12971072 0.004724599

fc2.bias f4 [256]
000000 fe c4 c3 bd 92 29 54 be 91 db 2c be 2e 25 82 bd
       -0.09559058 -0.20718983 -0.16880633 -0.06354748
000010 50 0f 30 be 6a 55 af 3c 78 53 c4 bd 7f 22 d6 bd
       -0.17193341 0.021403033 -0.09586233 -0.10455798
000020 95 18 0e be 79 6a 20 3d 72 2e da bd f1 ff a0 bd
       -0.13876565 0.03916404 -0.1065339 -0.07861317
000030 67 b0 02 3e df c5 45 bd 86 d4 01 be cf 38 f3 bc
       0.12762605 -0.048284408 -0.12678728 -0.029690174
000040 45 9a 9c be 46 3b a7 3e 8a 5d 6d bd da b4 fc 3d
       -0.30586448 0.3266241 -0.057950534 0.12339182
000050 0b 0d 0c be 69 01 df 3c db da 5d be 85 52 8c bd
       -0.1367685 0.027222352 -0.21665518 -0.06851677
000060 32 ef fd 3d a2 53 81 be c1 a4 c9 bd 16 e5 2f bd
       0.123991385 -0.2525912 -0.098458774 -0.042943083
000070 87 b4 91 bd 6b af 11 3e fc 2e 54 bd 33 7b d7 3c
       -0.07114511 0.14227073 -0.05180262 0.026303863
000080 1a 6d 8b be eb 27 92 be 2f 42 2d 3e 03 ec ef bd
       -0.27231675 -0.2854608 0.16919778 -0.117149375
000090 e1 8d 45 be 49 13 4a bd 52 04 7c be 9c d4 11 3e
       -0.19292404 -0.049334798 -0.24611023 0.1424126
0000a0 eb 33 8e be 88 bb e3 bd 84 5f f9 3e 87 4e c9 bd
       -0.27773985 -0.11119753 0.48705685 -0.09829431
0000b0 4e 87 f9 bd 29 76 c8 be 61 9d 76 bd 1c cf 2f 3d
       -0.121840104 -0.3915265 -0.060208682 0.042922124
0000c0 8e 79 48 be 44 da c0 3d 63 66 35 be 56 5e 56 3e
       -0.1957762 0.09416631 -0.17714839 0.20934424
0000d0 38 83 8a bd a4 1e 17 3c 14 6b 2b bc 59 b9 9e be
       -0.06763309 0.009223614 -0.010462541 -0.31000784
0000e0 65 4a 79 be 44 a8 2b 3e bb 51 b3 bd e9 c9 43 be
       -0.24344786 0.16763407 -0.08755823 -0.19119991
0000f0 2a 9b 1d be 6a 47 50 3e 2b c4 b5 bc b8 f7 81 be
       -0.15391222 0.20339742 -0.022188267 -0.25384307
000100 87 04 43 be 1d a6 00 be 91 85 17 3e 33 14 0d bd
       -0.19044696 -0.12563367 0.14797045 -0.03444309
000110 c0 21 0b be 4a 77 8f 3d 11 ca d8 bd 19 f9 25 bc
       -0.13587093 0.070051745 -0.10585416 -0.01013019
000120 58 34 7f be 8e b8 2c be 4f d2 04 be 32 05 78 3e
       -0.24922311 -0.16867277 -0.12970851 0.24220732
000130 98 69 9d 3d 8a 9c 30 3e dc eb 88 be 28 9f 4b be
       0.07686156 0.17247215 -0.26742446 -0.19884932
000140 4a 18 6a be 96 4e 33 3e 07 15 b5 bd aa 21 9e 3d
       -0.22860828 0.17510447 -0.08841901 0.07721265
000150 8c eb 2c bd 28 e8 51 bd 4b 4b 84 3e 40 ae bb bd
       -0.042216823 -0.051246792 0.25838694 -0.09164095
000160 a5 ca 8d bd af 7e 5c 3c d9 25 9a bd 85 c1 73 bd
       -0.06923417 0.013457938 -0.0752675 -0.059510726
000170 21 c6 e7 bd 9f df 20 bd f6 33 f7 bd d2 9b 85 bd
       -0.11317087 -0.03927576 -0.12070458 -0.06523861
000180 b5 77 48 be 47 2a 7e be 63 a1 c8 bd ae 0a 45 be
       -0.19576915 -0.24820815 -0.09796407 -0.19242355
000190 42 c8 bf bb 0a 4b 93 be 76 01 92 bd 5a e7 91 be
       -0.00585273 -0.28768188 -0.07129185 -0.2849682
0001a0 56 2a 36 bb d7 92 40 be 0b 41 3a be a7 8e dc bd
       -0.002779623 -0.18806015 -0.18188874 -0.10769396
0001b0 41 cc 99 3d ce f5 2a be 67 40 a0 3c 16 4a 81 bd
       0.075096615 -0.1669533 0.01956196 -0.06312959
0001c0 f3 5b 37 be 95 20 0b 3e 62 24 b1 bd 38 c8 b2 be
       -0.1790617 0.13586648 -0.086495176 -0.3491838
0001d0 39 57 1c be 1e 06 29 bd 0c f4 ac bd b2 33 27 3e
       -0.15267648 -0.0412656 -0.08444986 0.16328314
0001e0 ee 2f c2 3d 13 6f 48 3d ba 26 bc be 30 72 0b 3d
       0.09481798 0.048934054 -0.36748296 0.034044445
0001f0 6c 95 43 3c 26 e3 c9 bd 8e b8 94 bd 54 4a 42 be
       0.01193748 -0.09857778 -0.072617635 -0.18973666
000200 7b 31 b6 bd 51 29 35 be 80 35 a6 bc e3 0d 16 bd
       -0.088961564 -0.17691542 -0.020289183 -0.036634337
000210 0a f5 01 be 95 dd 99 bd 28 80 73 bd e8 61 25 3e
       -0.12691131 -0.075129665 -0.05944839 0.1615063
000220 91 a7 79 be 1f 4b ca 3d ae 6a 2f 3d 01 8a 85 3d
       -0.24380328 0.098776095 0.042826347 0.06520463
000230 6a 2e 4b 3d 40 61 66 be 26 a4 19 3e 65 1e 23 3e
       0.04960481 -0.22498035 0.15004024 0.15929563
000240 23 b3 a2 3c f8 34 f3 bd 3c 34 43 bd ac 7e e8 bd
       0.01986081 -0.11875337 -0.047657236 -0.11352286
000250 7e ed 9f be 5d 52 58 3d 6a 14 93 bc a9 67 76 be
       -0.3123588 0.052812923 -0.01795407 -0.2406298
000260 f2 df 99 be 09 a5 35 3e 51 c6 7c be fd 32 5a 3c
       -0.3005367 0.17738737 -0.24685027 0.013317821
000270 ba 64 b8 bd ee 04 75 3b f7 1e c1 bd b7 c9 98 be
       -0.09003587 0.0037386972 -0.09429734 -0.29841396
000280 fb 02 36 be e8 d2 cd bd 9e 1b 02 be dc af 3e 3d
       -0.17774574 -0.10049993 -0.12705848 0.04655443
000290 b2 3a c4 bd 26 ff 03 3d 8a 3e f9 be 27 03 68 be
       -0.09581508 0.03222575 -0.48680526 -0.22657453
0002a0 84 38 d0 3e 72 af 1a be 12 9c 98 bd e9 9b a3 be
       0.40668118 -0.1510599 -0.07451643 -0.31954888
0002b0 41 d0 32 be c1 ec 94 be 94 46 62 3d 6a 31 29 3e
       -0.17462255 -0.2908688 0.05524309 0.16522756
0002c0 19 2d 53 3c 78 5d 63 bd 0c c7 d0 bd 7a 96 2d bd
       0.01288917 -0.05550906 -0.10194215 -0.042379834
0002d0 77 70 34 be 32 63 df 3d 8a cf e3 bd c3 79 f9 bc
       -0.17621027 0.10907592 -0.11123569 -0.030453568
0002e0 e4 a6 30 be 0d 61 5d be 1a d2 b0 3c be eb bf bd
       -0.17251164 -0.21619053 0.02158456 -0.09371136
0002f0 b5 41 2a be 3a 15 eb 3d 96 da b4 bd 54 39 10 3e
       -0.16626628 0.11478658 -0.088307545 0.14084369
000300 44 7a 19 bd c8 54 09 be ab 9c 92 bd 1e 28 96 3d
       -0.037470117 -0.13411248 -0.07158788 0.073318705
000310 16 c7 a4 bd 0d 8a ea 3c 24 dd ee 3c b7 1e 86 be
       -0.08045785 0.02863028 0.029158182 -0.2619531
000320 a3 d5 1f be 1b e7 08 bd 54 60 bc bd 9c 59 eb bd
       -0.1560884 -0.033423524 -0.09198061 -0.11491701
000330 76 e5 05 3e 6e 6c 5a 3d 21 6c 54 3e 9d 45 ac bd
       0.13075814 0.053326063 0.20744373 -0.08411715
000340 71 da 3e bd 89 83 45 3e 16 60 f9 bd a1 2d 68 be
       -0.04659504 0.19288458 -0.1217653 -0.22673656
000350 b8 1d f9 bd 1e 02 56 3e c4 05 8d bd 4a a6 93 3c
       -0.121638715 0.20899245 -0.06885865 0.018023629
000360 6f e1 58 3d cc e5 9c bd 56 7b 3e 3e 22 ed d9 bd
       0.052949365 -0.07661018 0.18601736 -0.106409326
000370 97 09 19 3d c0 96 64 bd 75 77 72 be a0 5b 33 be
       0.03736266 -0.05580783 -0.23678382 -0.17515421
000380 7d 6b 21 be 8d 2f 62 be ca 40 17 3e 53 93 6b 3c
       -0.1576366 -0.22088452 0.14770809 0.014378387
000390 4c 8f dd bd 4d d9 c5 bd c4 c5 70 be 88 d9 06 3e
       -0.10818347 -0.096605875 -0.23512942 0.13168919
0003a0 62 48 02 3e 20 b0 9d 3d ea 67 5d bd 90 f3 08 3b
       0.12722924 0.07699609 -0.05405418 0.0020897128
0003b0 64 fd b5 bd 0a f6 2f 3e 1c 8c 72 bd 63 d0 68 3e
       -0.08886221 0.171837 -0.05921565 0.22735743
0003c0 6d d9 0e bd 6f 1e 06 bb 5b 4e 29 3e e1 3b cc 3c
       -0.034875322 -0.0020464917 0.16533796 0.024930896
0003d0 5c e0 ef 3d b6 2e 43 bd cf c5 81 be 6a b7 c1 3d
       0.11712715 -0.04765197 -0.25346228 0.094588116
0003e0 dc 1b 42 3d 16 a8 b2 bd fe 26 64 bc 1b 3d 4c be
       0.04738985 -0.08723466 -0.013925312 -0.19945185
0003f0 17 f1 57 3e c9 3a ab 3c ca f3 66 3d 8c 82 43 bb
       0.21088062 0.020902054 0.05638484 -0.002983245

fc3.weight f4 [64, 256]
000000 6d 2d 00 bf 43 ca b5 bd ba f1 e5 bd 5e 76 ed bc
       -0.50069314 -0.08876469 -0.11227746 -0.028987106
000010 9e 68 0f be 71 5d bb bd 3f 9a c2 bd 89 82 7b 3c
       -0.14004752 -0.09148682 -0.09502076 0.015350946
000020 24 93 01 bf 48 4a 1b 3d 62 b0 0f bd 5b 67 06 3e
       -0.50615144 0.037912637 -0.03508032 0.13125364
000030 eb e0 2d 3e 66 10 e1 be 68 1b 0a bf b9 61 92 3d
       0.1698033 -0.43957824 -0.5394807 0.07147545
000040 36 e6 5e 3d b8 a2 15 be ff 42 da bc 3d ef 45 3e
       0.054418765 -0.14612854 -0.026643274 0.19329543
000050 04 cb 7d bd dd 3b 1f 3e bc 9a 0f 3e 03 67 ab bd
       -0.06196119 0.1555018 0.1402387 -0.08369257
000060 bd 39 ff 3c c9 a3 a4 bc d0 1f 03 3d 68 95 eb 3d
       0.031155461 -0.02009763 0.03201276 0.11503106
000070 bb 7a 00 3d ce d7 b9 3c 5b 12 08 be 35 25 2c bd
       0.031367045 0.022685912 -0.13288252 -0.04202767
000080 e7 e9 88 bc af ba ad be 14 f7 a5 3d c1 53 01 be
       -0.016713096 -0.3393149 0.08103767 -0.12629606
000090 2f 13 1b bd e1 46 98 bd 88 70 59 bd e4 7c 33 be
       -0.03786009 -0.07435394 -0.053085834 -0.1752811
0000a0 be 2b 67 be db 5a 76 bc e0 5c b0 bd 8b d9 06 3e
       -0.2257528 -0.01503631 -0.086114645 0.13168924
0000b0 c3 16 01 3d a6 81 03 3d 5a 7d ec 3d a6 74 31 be
       0.031515848 0.032106064 0.115473464 -0.17329654
0000c0 c4 08 c4 bd 37 3d 89 bd 23 4c ca bd 82 6d 97 3d
       -0.095719844 -0.06701129 -0.09877803 0.07393934
0000d0 d4 05 56 be 35 e3 5b bd 13 28 bf bc f5 bc 0e be
       -0.20900661 -0.05368348 -0.023334539 -0.13939269
0000e0 4f 49 a2 bd a4 93 b1 3d d9 1e 44 be 98 e4 cc bd
       -0.07924139 0.08670738 -0.19152392 -0.10004538
0000f0 bc dd 75 3d c9 43 8a bc b6 01 9a 3d 03 06 a4 bd
       0.060025916 -0.016878026 0.075198576 -0.08008959
000100 c2 60 29 bf b5 66 03 bd e1 f1 17 3d 0f d7 6d 3d
       -0.66163266 -0.03208037 0.037095908 0.058066424
000110 49 10 ab 3c 3a 94 83 bc 98 ca 12 3d 2b 76 a3 bd
       0.020881789 -0.01606189 0.03583774 -0.07981523
000120 8f cf fe 3d c9 85 af be ff 58 48 3d bd c1 a7 be
       0.124419324 -0.34281757 0.048913 -0.32764998
000130 48 86 1b 3d ea e9 f4 bd c7 59 e0 be b4 72 95 bd
       0.037969857 -0.11958678 -0.43818495 -0.072972685
000140 56 4d c1 bb c7 b2 3f 3d fd 93 48 3e 0a 11 a4 3c
       -0.0058991117 0.046801355 0.19587703 0.020027656
000150 d9 7a 93 3d 21 b6 51 3c 75 6f b4 3d 63 85 2e 3e
       0.07201166 0.012799771 0.08810321 0.1704307
000160 f1 20 5d bc 37 82 7a bd 99 3c 1b bc a6 2e 8a 3d
       -0.013496623 -0.06115934 -0.009474897 0.06747179
000170 b1 6c c0 b9 58 0d 1f be b5 31 06 3d 01 c1 8b 3d
       -0.00036702075 -0.15532434 0.032762248 0.06823922
000180 99 e1 5b bf 36 16 cf bc 25 34 0a bc 8b c4 73 bb
       -0.8589111 -0.025279146 -0.008435284 -0.0037196006
000190 5f c2 03 3e ea 70 0f be ec 03 92 bd 3c fd c7 be
       0.12867115 -0.14007917 -0.07129654 -0.3906039
0001a0 ed b3 10 3e ac 20 95 3d 23 e7 53 bd 05 a4 e8 bc
       0.14131136 0.07281622 -0.0517341 -0.028398523
0001b0 32 78 5c bd e7 44 b2 3d a6 35 81 3c 08 a0 40 3e
       -0.053825565 0.08704548 0.015772652 0.18811047
0001c0 dc 50 12 be 02 19 d1 3d a1 79 a0 bb 71 f2 c6 bd
       -0.14288658 0.10209848 -0.004897312 -0.09714211
0001d0 17 fa bd bd ed cb 19 bd 7a fe 8b 3c e0 64 f2 bc
       -0.092762165 -0.037547994 0.017089117 -0.029589117
0001e0 08 c2 af 3d 1a 7f d2 3d 5b 4a 6a be 69 be fd 3d
       0.085819304 0.10278149 -0.22879927 0.123898335
0001f0 fd 44 89 be 70 79 d2 bd 73 91 27 bd e0 5e e4 3a
       -0.26810446 -0.102770686 -0.040910196 0.0017423294
000200 52 7d 92 3d 32 99 27 3e 93 73 a0 be 53 97 62 3d
       0.07152809 0.16367033 -0.31338176 0.055320095
000210 09 8f 49 3e b9 e9 20 bd 66 bd 36 3d 01 65 79 bd
       0.1968347 -0.039285395 0.04461422 -0.06088734
000220 23 56 05 bd 05 1b bf bd b4 34 9d 3c 12 06 aa bb
       -0.03255285 -0.093313254 0.01919017 -0.005188712
000230 2f aa 51 3b 43 59 9c 3d 84 7c 32 3c c9 ab fb 3d
       0.0031992306 0.07634213 0.010893945 0.12288625
000240 79 01 7f be 37 10 2f bd 41 7b 12 3e 32 cf 5b 3d
       -0.24902906 -0.042740073 0.1430483 0.053664394
000250 9b dc 09 bf 59 3d d7 3d b7 d9 0e 3c 24 e3 89 be
       -0.5385224 0.10509748 0.008718899 -0.26931107
000260 3e 20 e1 3d 0e 7e d1 bc 56 0d 86 3e bd 8d 23 3b
       0.10992478 -0.025572803 0.2618205 0.0024956309
000270 29 1c 76 3d 13 bb 73 be 3b cb 8b 3d 9e ec 90 be
       0.06008545 -0.23801832 0.068258725 -0.28305525
000280 e6 32 14 be aa ac d5 bc 04 50 b6 3d 4f 0d 31 3e
       -0.14472541 -0.02608331 0.089019805 0.17290233
000290 9e cd 70 bf 73 fa 98 bd 46 78 4a bd 89 ab 0c be
       -0.94063747 -0.074696444 -0.049431108 -0.1373731
0002a0 c2 17 8a be f8 74 29 3e a4 d2 ea bc d3 69 5f be
       -0.2697125 0.16548526 -0.028664894 -0.21817712
0002b0 56 de e7 bc 8c 35 9a 3d 05 6f 86 3d 29 ba 07 3e
       -0.02830426 0.075297445 0.06564144 0.13254608
0002c0 38 5f b9 3d e9 ae 5f be 14 3b 81 bd 8a 17 3c be
       0.09051365 -0.21844067 -0.063100964 -0.18368354
0002d0 b5 07 85 3b 3c 04 3d be 0c cc a5 bd 00 44 ae ba
       0.0040597566 -0.18458647 -0.080955595 -0.0013295412
0002e0 33 84 3d 3e d2 f6 c3 3c 89 ab 90 be c8 11 ca bd
       0.18507461 0.023921404 -0.2825587 -0.09866673
0002f0 be 59 5b bd 19 89 43 3e 02 71 5d 3e a0 9f d2 3d
       -0.05355238 0.19095267 0.2162514 0.10284352
000300 fb 66 96 bc a8 93 e5 3e f6 86 06 3e 54 86 95 bc
       -0.018359652 0.44839215 0.13137421 -0.01825253
000310 d5 c5 58 be 3d 08 94 bd 3b 8c 18 bd 75 28 71 3d
       -0.21169217 -0.07228134 -0.03724311 0.058876473
000320 c3 e0 fb bc 25 02 77 bd 43 28 e3 bd 69 b3 9b 3d
       -0.030746823 -0.06030478 -0.11091664 0.07602579
000330 96 ec 0a be 01 83 14 be 81 50 6d 3e 36 4e 11 3e
       -0.13566813 -0.14503099 0.23175241 0.14189991
000340 e0 4a 36 be 1e d8 9f be ea 64 f3 3c 60 a3 d6 bd
       -0.17802 -0.31219572 0.029711206 -0.1048038
000350 07 95 f8 3c 6b 60 56 bc d2 94 1f bf a6 0f 3d be
       0.0303445 -0.013084511 -0.62336457 -0.18463
000360 c4 83 53 bd e1 e7 a0 3d 14 98 ec bb 57 33 25 3d
       -0.051639333 0.078567274 -0.0072202776 0.040332165
000370 ff 9f 55 bd 10 9f 9d 3d 8b c7 e2 be 65 e6 36 bd
       -0.052154537 0.076963544 -0.44292864 -0.044653315
000380 6f a5 9d b9 f7 2a 9a 3c 17 94 58 bd 10 2f 00 bd
       -0.0003006863 0.018819315 -0.052875604 -0.031294882
000390 fe b6 42 bd 96 5e d8 bc c3 ad 07 3c 2d ed 52 3e
       -0.047537796 -0.02641229 0.008281174 0.20598288
0003a0 bb 9d 84 bb b7 9e be be ec 47 84 be c0 f3 02 3e
       -0.0040471232 -0.37230465 -0.25836122 0.12788296
0003b0 82 25 40 bc 7f e8 85 3b 3a 7d c0 bb 40 fb dd bc
       -0.011727693 0.0040865536 -0.005874303 -0.027097344
0003c0 c5 61 22 bd 52 cf 6c be ca 7e 0a 3e e4 14 f0 bc
       -0.03964402 -0.23125961 0.13524929 -0.029306836
0003d0 e2 01 84 be 21 04 28 be f8 8d f5 be 7b dc 09 3d
       -0.25782686 -0.16407825 -0.47959876 0.033657532
0003e0 f9 c0 7c be ca ee 8b be 74 e7 0e bd 29 45 0b bc
       -0.24682988 -0.2733062 -0.0348887 -0.008500376
0003f0 45 bf 27 be 58 6f 84 be 84 dc 87 bc 18 3d c2 3b
       -0.16381557 -0.258662 -0.016584642 0.005927693

fc3.bias f4 [64]
000000 1e eb 48 be 6f cc fd 3e d8 d9 ce 3e 74 dd 17 3f
       -0.1962094 0.49570033 0.40400577 0.59322286
000010 38 b8 6e be 42 1f b3 3d db 9f 8e be a3 b1 d1 be
       -0.23312461 0.08746196 -0.27856335 -0.4095584
000020 70 7b 81 be f7 5c 25 bf 80 da a0 bc e0 f6 d5 3d
       -0.25289488 -0.6459498 -0.019635439 0.10447478
000030 e8 ab 9b be ca a5 7f 3e 79 0e 4a bd 66 a4 22 bf
       -0.30404592 0.24965587 -0.04933021 -0.635321
000040 47 bd d4 3d 8d 02 14 be 26 bd eb be df 30 75 be
       0.10387664 -0.14454098 -0.46042746 -0.23944424
000050 3c f8 13 bf 4c 52 2d bd d1 9e 55 3e c8 63 e8 bd
       -0.5780065 -0.042314813 0.20861365 -0.11347157
000060 a1 dd af be c7 3d 1f bf 1f 9f 0e 3c bd a9 4f 3e
       -0.34348777 -0.6220364 0.00870493 0.20279594
000070 fb 77 b2 bf 3a 11 f7 be a5 6c 5f 3e a4 f0 74 bf
       -1.3942865 -0.4825533 0.21818788 -0.9567969
000080 f7 5a 5c be 77 3c 67 3d 62 14 b5 3d 1c aa 3e bd
       -0.21519075 0.05645415 0.08841778 -0.046548948
000090 6a 32 07 3f 2e 7c b6 3e 4f 37 1b bf 4b 90 1d 3f
       0.528113 0.35641617 -0.6063127 0.615483
0000a0 75 13 16 be 95 12 9a 3e be 14 88 be aa 5f fa bc
       -0.1465586 0.30092302 -0.26578325 -0.030563194
0000b0 65 9f ba 3d 16 76 99 be f2 51 26 3f f4 20 28 be
       0.09112433 -0.29972905 0.6496879 -0.1641882
0000c0 55 9e 93 be f6 3e c5 be 20 76 5a be e1 7a 24 3f
       -0.28831735 -0.38524598 -0.21334124 0.6425
0000d0 d7 3f 76 3d 2d 44 8b 3e 3b 14 46 bf 29 40 3d be
       0.060119476 0.27200451 -0.7737462 -0.18481506
0000e0 09 b0 39 3f f3 a4 0f bf 60 45 07 be bf 40 8c be
       0.72534233 -0.5611107 -0.13210058 -0.27393147
0000f0 53 cf e1 3c a7 1e b6 bd d5 3b bb 3c 53 41 80 be
       0.02756468 -0.08892565 0.022855679 -0.25049838

fc4.weight f4 [1, 64]
000000 a2 63 c9 3c 0c 21 a4 bc 40 bd 87 3c 78 b0 be 3c
       0.024583641 -0.02003529 0.016569734 0.023277506
000010 71 eb ad 3b ce 71 7e 3c 20 25 9d 3b c2 47 58 bc
       0.005307608 0.015530063 0.0047956854 -0.013200702
000020 ee d6 a2 3b a3 21 e7 3c 31 20 99 3c 56 61 22 3c
       0.0049694693 0.028214281 0.018692108 0.009910902
000030 2b 72 24 3d 07 eb c2 bc dd e4 83 bc a9 c2 bf 3b
       0.04014794 -0.02379371 -0.016100341 0.0058520627
000040 0b 5a d9 bc 3d 63 85 3c 64 47 0a bc f2 7e 0b bd
       -0.026532194 0.016282672 -0.008439872 -0.03405661
000050 d3 d0 41 3c f1 ee 22 bc 57 ce 8f bc 19 fc d5 3c
       0.011829573 -0.009944663 -0.017554445 0.026121186
000060 b9 bf fb 3b cf 58 36 3c bf ca a0 bc 16 78 34 bc
       0.007682767 0.011129572 -0.019627927 -0.011014959
000070 96 28 bc 3c 6e d1 89 3c 96 18 a0 bc 1d 78 de 3c
       0.022968572 0.016823497 -0.019542973 0.027156884
000080 18 8d bd bd de 98 44 bc 60 34 3e bc 1c 62 06 bc
       -0.09255427 -0.011999337 -0.011609167 -0.008202102
000090 c1 ac 3d bc bc 58 3d 3c e2 e6 fe bb 7d d2 e0 3c
       -0.011576832 0.0115568 -0.007778988 0.027444119
0000a0 a8 e8 68 bd 61 f5 60 3b 4b 02 31 3b ca ae a9 bc
       -0.056862503 0.0034325945 0.0027009423 -0.020713229
0000b0 66 15 b2 bc 61 46 b0 3c 75 94 c1 bc bc b3 b7 bc
       -0.02173872 0.021517934 -0.02363036 -0.022424571
0000c0 2a 5d 09 3c d5 99 98 3c 6b 33 8c bc 5a 27 18 3c
       0.008384028 0.01862804 -0.017114362 0.009286726
0000d0 2c e6 7f bc e3 e4 92 bc f1 fb 11 3d f4 21 3c 3c
       -0.015618842 -0.017931407 0.03564066 0.011482704
0000e0 3e b5 df bc c2 57 94 3c 14 a2 88 bb 18 9b e8 3c
       -0.027308103 0.018108252 -0.004169712 0.028394267
0000f0 a4 7c 82 bc 35 c9 99 bc ca ee ac bc bf 65 5d bd
       -0.015928574 -0.0187727 -0.021109957 -0.05405211
